FFTbest_classification_model.pth (torch, 655756 bytes, 41 tensors)

transformer.input_projection.weight f4 [64, 14]
00000000: 3420 9a3e 6bd6 d23d 8de1 1cbc 5474 76be
00000010: 2717 223e d15e 483e ea8a d2bd 4af1 333e
00000020: 21e8 ebbd 0887 2f3d d561 87bd 07ec 7e3d
00000030: 2332 aebd 16fb 6cbe a383 97be d0db 00be
00000040: 066f b03e d427 ae3e 3d2e 80be 6d86 783d
00000050: 01e8 91be 376c 4a3d 1923 9bbe d332 363d
00000060: ceaa f53d 89b0 573e dbd1 29be d4d2 1ebb
00000070: e177 9fbd e0bc 4a3e ad8b ad3d 3c5c bd3c
00000080: cfb1 cb3d 2351 a2be 8ae6 84be 72dd c3bd
00000090: 2092 743d 501b c2be 122c bebc f4bf 1b3e
000000a0: 0359 c4be 7177 0dbe 68ae 863e c121 b3bd
000000b0: 68c1 c53e 2474 98be 1ae3 a53e d19d 9fbe
000000c0: 2a6d 433e f16b 8d3d 3ee5 743e 856f 84bd
000000d0: 9fdd bdbe c9aa 06be e23c bb3d a0d5 1b3e
000000e0: 1553 a7bd 3f91 803b 932d 92bd 4b66 e43d
000000f0: 4d6b 39be 1cd3 a93e 0b76 dabb bfe3 383d
00000100: 5520 ccbd a344 56bd f455 4dbd 5b6e 243e
00000110: 8891 fe3d 6f18 abbc f598 a53d 50c9 7fbc
00000120: 95c7 db3d c000 8a3e 27fc aabe 177d 98be
00000130: 95e9 303e 2127 1f3e 4c81 523e 8e4a b73e
00000140: 7787 d8be 1cf7 b53e b6f4 05bf 6953 e83d
00000150: d7a1 31bd 1078 99be 6bf3 76be c03b f53d
00000160: 7c32 e63d 6fd2 98be c9de 04bc b69b e03e
00000170: caf2 9a3d e9f6 253e c1b0 cd3e 06a8 a3be
00000180: 357c f3bc 6129 2dbe 04a3 06bc 6c11 85bd
00000190: 3597 24be fd66 2fbe ee7d 7b3e a1a4 a03e
000001a0: e04c 233e 8363 81be eb38 b73d c4c0 fbbe
000001b0: ebb1 7abd 50da 9cbc ebdf 28be 7b3d b9be
000001c0: c3ff 513e 090c 553c 1a2f 2f3f ae0a 1dbe
000001d0: 3ed8 78bd 5c44 a0be 3436 df3e e8bb 723e
000001e0: 9a9a 0dbe c214 f1bd a1cf e23e 7021 9a3c
000001f0: c5bc 4cbe 3281 d73e 40b2 b53e 20b1 b43e
00000200: 28c1 103d 93eb 253e 8ef5 833e 75c1 063e
00000210: f103 823e 56b1 67be d2c6 20be e233 7b3e
00000220: e032 4cbc 69b4 15be e763 cf3d 4724 04bd
00000230: 1470 e0bc 9116 c63d b66e 823d 9b8e 9b3c
00000240: e1d5 c63e fa28 b43e deb3 82be 5993 843d
00000250: a022 573c 789d ca3d b742 013e 6c17 74be
00000260: 5597 823e 3fb2 05be e5f2 a8bc 1096 01be
00000270: dd4a 103f 23b4 5d3c 7ea5 aebd 2d4e 773e
00000280: 9114 4e3e 83e1 953e 6b63 b5bc 6271 1d3f
00000290: e64e fa3c 354d 2b3e 54cf 90bc 0f12 c53e
000002a0: edbd 5abd 7875 913d 37f1 803d 0f6d 7ebe
000002b0: 4676 f93e dd9c 8fbe 4ed9 cbbd c84e a63b
000002c0: 3323 343e b880 543e 76a1 213e 86e6 53bd
000002d0: 73b3 d7bd 1736 29be 8fd2 10be 2c8d f4bc
000002e0: 1b9c 91be f7f3 be3e 521c 303e e3b4 fc3c
000002f0: efc2 11bf c333 cdbd 422d 82be e148 03bf
00000300: 8a76 1abe 30d4 ecbd 8a40 4ebe 5fe8 c9be
00000310: 0e4d d1bd 9743 afbd d011 b63e 4bce 6f3d
00000320: 2d53 21bf 9fd2 59be a7c3 343e 322e debd
00000330: 4dd3 0cbe 50f2 293f 03a5 57bc fead 073f
00000340: 389b 393e 2605 b43d d857 d2be 5e74 bfbd
00000350: a5e9 2b3e 3be1 41be f216 f13d 3298 ccbd
00000360: b309 49be 28b9 f43d f9ed 093e f157 053c
00000370: 45a9 a5bd 017e be3e b3be 933d 8b74 8b3e
00000380: e891 4ebe 0625 f1bc 2770 a7bd fde8 163e
00000390: 255f 36bd 7a43 d9bc 4f51 d6bc 3040 10bd
000003a0: d363 993c 4731 debe 66de adbe dec5 523e
000003b0: 18bb 90bd fd27 13be 7b04 fb3d cb3f dbbd
000003c0: 8fce 133c dd5f a8be b207 a33e 7cc4 0dbf
000003d0: d496 553e 2ded a3be 9cc8 17bd 9b49 4cbf
000003e0: a4b8 f2ba 3390 babd b3a0 593e 0a3a 853e
000003f0: f1f1 a33e f60c 01be f12b 643e 6bb7 f1be
0.30102694 0.10294803 -0.00957526 -0.24067813 0.15829144 0.1956742 -0.10280402 0.17572513
-0.115188845 0.042853385 -0.06610457 0.062236812 -0.085056566 -0.23142657 -0.29592618 -0.12583852
0.34459704 0.3401476 -0.25035277 0.060675073 -0.28497317 0.049419608 -0.30300215 0.044482064
0.11995469 0.21063437 -0.1658396 -0.002423455 -0.07786537 0.19798613 0.08473907 0.02311527
0.09946024 -0.31702527 -0.25957137 -0.09563722 0.05970967 -0.37911463 -0.023214374 0.15209943
-0.3834916 -0.13815095 0.26304936 -0.087466724 0.3862412 -0.29776108 0.32399827 -0.31175092
0.19084612 0.06905354 0.23915574 -0.06466583 -0.37083146 -0.13151087 0.09142472 0.1521821
-0.081701435 0.0039235647 -0.07137599 0.11152323 -0.18107338 0.33168876 -0.006666904 0.04513907
-0.09967104 -0.05231155 -0.0501308 0.16057722 0.12430102 -0.020885674 0.08085815 -0.0156119615
0.107314266 0.26953697 -0.33395502 -0.29782936 0.17276604 0.1554227 0.20557135 0.35799068
-0.4229085 0.35540092 -0.52326524 0.11344034 -0.043367233 -0.29974413 -0.24116294 0.11974287
0.11240098 -0.29848048 -0.008109757 0.43868798 0.075658396 0.1620747 0.40173915 -0.3196413
-0.029722312 -0.16910316 -0.008217577 -0.064974636 -0.16073306 -0.1712913 0.24559757 0.31375602
0.15947294 -0.25271234 0.08946403 -0.49170506 -0.061204832 -0.019147068 -0.16491668 -0.36179718
0.20507722 0.013003358 0.68431246 -0.15336105 -0.0607531 -0.31302154 0.4359604 0.23704493
-0.13828507 -0.11771537 0.44299033 0.018814772 -0.19993885 0.42090756 0.35487556 0.35291386
0.03534046 0.16203146 0.2577328 0.13159736 0.25393632 -0.22626242 -0.15700844 0.2453151
-0.012463301 -0.14619602 0.10126477 -0.03226116 -0.027397193 0.09672273 0.06368773 0.018988898
0.38835052 0.35187513 -0.25527853 0.06473417 0.013130814 0.09893316 0.12623106 -0.2383706
0.25506082 -0.13056277 -0.020623634 -0.126549 0.5636423 0.0135317175 -0.08527659 0.24150915
0.20125033 0.29273614 -0.022142133 0.61501133 0.0305552 0.16728671 -0.017676987 0.3849034
-0.053403784 0.071024835 0.06296008 -0.2484629 0.48723048 -0.28049365 -0.09953557 0.0050753094
0.17591552 0.20752227 0.15784249 -0.051733516 -0.10532274 -0.1652454 -0.14142822 -0.029852472
-0.28439412 0.37295505 0.17198303 0.030847972 -0.5693807 -0.100196384 -0.25425154 -0.5128308
-0.15084282 -0.11563909 -0.20141807 -0.39435098 -0.10219775 -0.085578136 0.35560465 0.058546346
-0.6301754 -0.21271752 0.1765276 -0.10848655 -0.1375248 0.66385365 -0.0131619 0.52999866
0.18125618 0.087900445 -0.41082644 -0.09348367 0.16788347 -0.18933575 0.117719546 -0.099899665
-0.19632606 0.11949378 0.13469686 0.008138643 -0.08088926 0.37205508 0.07214107 0.27237353
-0.20172846 -0.0294366 -0.08175688 0.14737315 -0.04452433 -0.026521433 -0.026161818 -0.035217464
0.018724358 -0.4339697 -0.3395874 0.20583293 -0.07066935 -0.14370723 0.12256714 -0.10705527
0.009021415 -0.32885638 0.3184181 -0.55377936 0.20858318 -0.32016888 -0.03705655 -0.79799813
-0.0018518162 -0.09109535 0.21252708 0.26020843 0.32020524 -0.126026 0.22282387 -0.4721025

transformer.input_projection.bias f4 [64]
00000000: 56be 833e 7749 b9be 488c 01bf 3b45 ff3e
00000010: 37c4 113f 3612 bdbe 84ec 0f3f 7f10 123f
00000020: 5f08 06bf 7d41 443e 0cf4 383d 4876 1bbf
00000030: b237 153e 2572 b5be a63d fabe 1da7 f03b
00000040: dd83 f2be 6be0 8e3e 75db d43e 97c7 59bf
00000050: 5451 d2bd e442 3e3c 7a84 ccbe 52a0 63be
00000060: a42a 8f3e a076 75bf 0586 323f a77e 603e
00000070: 62d8 9cbf 69e9 733e 8e69 b23e 8cd1 08bf
00000080: dca2 37bf 971b 02be 4769 e43e b30f d3be
00000090: 1e99 5ebd 6eb0 d23e 8b11 2f3f 3aaa c9be
000000a0: 10d6 13be 512c fd3e dbcb 44bf 84ed 1b3e
000000b0: 4d9f a2bd 9786 523f b954 023f 9a1b f33e
000000c0: da83 ec3e 917d 443f 071d 023f c65a 52bf
000000d0: 54f4 3d3d 9b25 cebc 8eca 033d 3487 953e
000000e0: d3d5 06bf c968 b93e 441c c73e 90b7 833e
000000f0: 6a12 b93d c397 0d3f f41a c9bd 244c 403f
0.25731152 -0.36188862 -0.5060468 0.49857506 0.56940025 -0.36927956 0.5622027 0.5705642
-0.52356523 0.19165607 0.045154616 -0.6072736 0.14572027 -0.35438648 -0.4887516 0.00734414
-0.4736623 0.27905592 0.41573682 -0.85070175 -0.10269418 0.011612628 -0.39944822 -0.22229126
0.2796222 -0.9588413 0.6973575 0.21923314 -1.2253535 0.23819508 0.34846157 -0.53444743
-0.7173288 -0.12705837 0.4461157 -0.41222915 -0.054345243 0.4115023 0.68386143 -0.39387685
-0.14437127 0.49447873 -0.7687356 0.15227324 -0.079405405 0.8223662 0.50910527 0.47481996
0.46194345 0.767541 0.5082554 -0.8216976 0.046375588 -0.025164416 0.032175593 0.29204714
-0.5267002 0.36212757 0.38888752 0.25725985 0.09036715 0.55309695 -0.09819594 0.7511618

transformer.positional_encoding.pe f4 [1, 129, 64]
00000000: 0000 0000 0000 803f 0000 0000 0000 803f
00000010: 0000 0000 0000 803f 0000 0000 0000 803f
00000020: 0000 0000 0000 803f 0000 0000 0000 803f
00000030: 0000 0000 0000 803f 0000 0000 0000 803f
00000040: 0000 0000 0000 803f 0000 0000 0000 803f
00000050: 0000 0000 0000 803f 0000 0000 0000 803f
00000060: 0000 0000 0000 803f 0000 0000 0000 803f
00000070: 0000 0000 0000 803f 0000 0000 0000 803f
00000080: 0000 0000 0000 803f 0000 0000 0000 803f
00000090: 0000 0000 0000 803f 0000 0000 0000 803f
000000a0: 0000 0000 0000 803f 0000 0000 0000 803f
000000b0: 0000 0000 0000 803f 0000 0000 0000 803f
000000c0: 0000 0000 0000 803f 0000 0000 0000 803f
000000d0: 0000 0000 0000 803f 0000 0000 0000 803f
000000e0: 0000 0000 0000 803f 0000 0000 0000 803f
000000f0: 0000 0000 0000 803f 0000 0000 0000 803f
00000100: a46a 573f 4151 0a3f ce7a 2e3f b054 3b3f
00000110: ba7d 083f 0d94 583f f090 d13e c792 693f
00000120: 3e39 9f3e 6b4e 733f 258f 703e f1d5 783f
00000130: 3a23 353e 83f6 7b3f f325 083e 28ba 7d3f
00000140: 7675 cc3d 98b8 7e3f 366f 993d d147 7f3f
00000150: ae36 663d 6898 7f3f faac 2c3d bdc5 7f3f
00000160: 5b81 013d 3cdf 7f3f a53e c23c 93ed 7f3f
00000170: 42ab 913c a3f5 7f3f 497a 5a3c 2cfa 7f3f
00000180: 57d6 233c b9fc 7f3f 16b9 f53b 28fe 7f3f
00000190: 5a44 b83b f7fe 7f3f 5a2e 8a3b 6bff 7f3f
000001a0: 1c3e 4f3b acff 7f3f 0369 1b3b d1ff 7f3f
000001b0: 2015 e93a e6ff 7f3f 8ac9 ae3a f1ff 7f3f
000001c0: 6d12 833a f8ff 7f3f 8994 443a fbff 7f3f
000001d0: 136a 133a fdff 7f3f 2117 dd39 ffff 7f3f
000001e0: 61cb a539 ffff 7f3f 0da8 7839 0000 803f
000001f0: 5377 3a39 0000 803f 6dd4 0b39 0000 803f
00000200: b7c7 683f 3311 d5be d95a 7f3f 534d 913d
00000210: 0af2 663f b2e8 dc3e 1135 3f3f 0339 2a3f
00000220: 1b54 173f ec7b 4e3f b5d3 e93e 69be 633f
00000230: f647 b23e a6fa 6f3f 82f0 863e f5f2 763f
00000240: f86f 4b3e a5e5 7a3f d300 193e 4f20 7d3f
00000250: 86d9 e53d f361 7e3f ae85 ac3d 0e17 7f3f
00000260: c870 813d f97c 7f3f aa30 423d 4eb6 7f3f
00000270: 5ca5 113d 8ed6 7f3f 5075 da3c b1e8 7f3f
00000280: 3ed4 a33c e5f2 7f3f 51b7 753c a1f8 7f3f
00000290: 9b43 383c dbfb 7f3f 0a2e 0a3c abfd 7f3f
000002a0: d83d cf3b b1fe 7f3f e768 9b3b 43ff 7f3f
000002b0: 0815 693b 96ff 7f3f 7fc9 2e3b c4ff 7f3f
000002c0: 6812 033b dfff 7f3f 8594 c43a edff 7f3f
000002d0: 126a 933a f5ff 7f3f 1f17 5d3a faff 7f3f
000002e0: 60cb 253a fdff 7f3f 0ca8 f839 feff 7f3f
000002f0: 5377 ba39 ffff 7f3f 6dd4 8b39 0000 803f
00000300: c381 103e 2670 7dbf de3c 473f cebf 20bf
00000310: d745 7e3f ab7f edbd 6321 743f 6318 9a3e
00000320: c209 503f 582f 153f b724 273f a2e7 413f
00000330: 6c2f 023f 296d 5c3f a768 c73e 37c9 6b3f
00000340: 6c4e 973e ef90 743f e26d 643e 928c 793f
00000350: d7ee 2b3e 9e5d 7c3f 2c33 013e 43f4 7d3f
00000360: c0ff c13d 4fd9 7e3f 0693 913d 3a5a 7f3f
00000370: 4e69 5a3d c3a2 7f3f c5d1 233d 90cb 7f3f
00000380: 1fb9 f53c 83e2 7f3f 4747 b83c 6bef 7f3f
00000390: c631 8a3c adf6 7f3f 4644 4f3c c1fa 7f3f
000003a0: 0d6e 1b3c 0dfd 7f3f 131d e93b 58fe 7f3f
000003b0: a8cf ae3b 11ff 7f3f 1317 833b 7aff 7f3f
000003c0: 929b 443b b5ff 7f3f 606f 133b d6ff 7f3f
000003d0: 171f dd3a e8ff 7f3f 56d1 a53a f3ff 7f3f
000003e0: 10b1 783a f9ff 7f3f 097e 3a3a fcff 7f3f
000003f0: 7ed9 0b3a feff 7f3f a4be d139 ffff 7f3f
0.0 1.0 0.0 1.0 0.0 1.0 0.0 1.0
0.0 1.0 0.0 1.0 0.0 1.0 0.0 1.0
0.0 1.0 0.0 1.0 0.0 1.0 0.0 1.0
0.0 1.0 0.0 1.0 0.0 1.0 0.0 1.0
0.0 1.0 0.0 1.0 0.0 1.0 0.0 1.0
0.0 1.0 0.0 1.0 0.0 1.0 0.0 1.0
0.0 1.0 0.0 1.0 0.0 1.0 0.0 1.0
0.0 1.0 0.0 1.0 0.0 1.0 0.0 1.0
0.84147096 0.54030234 0.68156135 0.731761 0.53316844 0.8460091 0.4093089 0.9123959
0.3109836 0.9504153 0.23492105 0.9720145 0.17689219 0.9842302 0.13295726 0.99112177
0.099833414 0.9950042 0.07491915 0.9971896 0.05620449 0.9984193 0.04215715 0.999111
0.031617504 0.99950004 0.023711512 0.99971884 0.017781857 0.99984187 0.013334819 0.99991107
0.009999833 0.99995 0.0074988706 0.99997187 0.0056233825 0.9999842 0.0042169513 0.9999911
0.0031622713 0.999995 0.0023713715 0.9999972 0.0017782785 0.99999845 0.001333521 0.9999991
0.0009999998 0.9999995 0.000749894 0.9999997 0.0005623411 0.9999998 0.00042169637 0.99999994
0.00031622782 0.99999994 0.00023713727 1.0 0.00017782794 1.0 0.00013335208 1.0
0.9092974 -0.41614684 0.99748 0.070948265 0.9021307 0.43146282 0.7469035 0.6649324
0.5911271 0.8065784 0.45669332 0.8896242 0.34820527 0.93741834 0.26355368 0.96464473
0.19866931 0.9800666 0.1494172 0.98877424 0.1122313 0.9936821 0.08423935 0.99644554
0.063203394 0.9980007 0.04740969 0.9988755 0.03555809 0.9993676 0.026667267 0.99964434
0.019998666 0.9998 0.014997319 0.9998875 0.011246587 0.99993676 0.008433828 0.9999644
0.006324511 0.99998003 0.00474273 0.99998873 0.0035565514 0.9999937 0.0026670394 0.9999964
0.0019999985 0.99999803 0.0014997876 0.99999887 0.0011246821 0.99999934 0.0008433926 0.99999964
0.0006324556 0.9999998 0.0004742745 0.9999999 0.00035565588 0.99999994 0.00026670416 1.0
0.14112 -0.9899925 0.7782725 -0.6279267 0.9932532 -0.11596616 0.95363444 0.3009673
0.8126489 0.58275366 0.652904 0.7574407 0.5085361 0.86104065 0.3894703 0.92103904
0.2955202 0.9553365 0.22307542 0.9748012 0.16790329 0.9858035 0.12617177 0.9920084
0.094726086 0.99550337 0.071081206 0.9974705 0.053323083 0.9985773 0.039994974 0.99919987
0.0299955 0.99955004 0.022494925 0.999747 0.016869437 0.9998577 0.012650555 0.99991995
0.009486687 0.999955 0.0071140616 0.9999747 0.005334813 0.99998575 0.0040005534 0.999992
0.0029999954 0.9999955 0.0022496805 0.9999975 0.0016870227 0.99999857 0.0012650888 0.9999992
0.00094868336 0.9999996 0.00071141176 0.99999976 0.0005334838 0.9999999 0.00040005625 0.99999994

transformer.transformer_encoder.layers.0.self_attn.in_proj_weight f4 [192, 64]
00000000: 8962 a1bc 2978 b4bd a21f e73e 9e23 bbbe
00000010: c66c 753d e631 84be 720c 403e 8a69 dd3d
00000020: c3e7 4ebe 431e 89be 0124 c63e 95c9 bcbe
00000030: 3ec0 8d3e 07df 933e 0acd 1fbf d40f 12be
00000040: e7b6 063e e01f 3cbe 62b7 8b3e 5bff 12be
00000050: 3c4a 8e3e c6cf 86bd 4f0f cdbe 778b b73d
00000060: 213b 2a3e 94d0 793e 1be9 4a3e 9e32 343e
00000070: 1cfa c73e 59de 133e 1a97 e7bd d99b 573e
00000080: fd4c b1bd 1f3c 053e cb21 2b3e a7f0 923e
00000090: b0ef e73e 1776 a1be d37e adbe 2858 b3be
000000a0: 43d7 d63b b4f3 5b3a 4a6b 27be 736b 303f
000000b0: 235f 0dbf f293 1abe 7f1c 9dbb be78 a9be
000000c0: b31a 0a3f c8b9 6f3e 1215 753e 38b9 793c
000000d0: 0629 2d3d 2cb8 17be eb73 a73e 7ba4 83be
000000e0: bd2b 233e feee 473d 43f0 1dbe 64bc 2f3f
000000f0: 10e4 413e 0651 e6be a5ce 29bc db3f 45be
00000100: b018 853e a601 273e 2eb3 95be 7323 52be
00000110: 0a83 f6bd 6eaa ddbd 00a3 42bd ffa1 86bd
00000120: 17d4 a7bc ae27 f53d 3fc2 373c 6ee7 903e
00000130: 56eb 8bbd 5bef 78bd da96 e33e 7e56 ba3b
00000140: 9253 50be 6816 afbe 4a4a 5fbe 8a99 69bd
00000150: 7acd 43bd b681 bebd 590b 2fbe ccd1 e9bd
00000160: 7cbd 203e ee97 93be e647 e3be fede eebc
00000170: faa8 6f3e f381 ef3c 2bdd 903d a5ae 94be
00000180: c673 a93e 55b3 f3bd 1f4c 2abe 7f53 2bbd
00000190: e71e 9cbe 8138 da3c 1bfe 413d 255a 823e
000001a0: 332a f53d b234 cc3d 852c 6ebb 6489 1cbe
000001b0: 3094 db3d f753 30be 806a 6bbe 640b 3f3d
000001c0: 2357 d5bc 5bfc 8dbe b905 f1bd 9d90 ca3e
000001d0: d2c0 70be 4d3a acbd de69 783e f05e 12be
000001e0: c4a5 893e f601 07bf bfa2 32be 015f da3d
000001f0: b5fe 7dbe 5532 3d3c e2f6 8d3d b5e1 55bc
00000200: 3f67 8a3c bb06 5e3d 07e3 6ebd a3f1 fcbe
00000210: bd34 4cbe 4c81 58be 9dcd 19be 10aa b7be
00000220: 32f3 4e3d 1e48 8d3e b46a 863e 7c35 14be
00000230: ca9a 363e 37ac f4bb 3da3 48be de8e 45bd
00000240: b6ea 3abe d1de afbe a95f 0d3d 7f71 dd3d
00000250: fdd7 ebbd b171 f9bd a075 9cbd 8a69 fc3d
00000260: 3c5a 883e 1cf1 0b3e 5a29 19bf 9683 08bc
00000270: fefd ad3e 1440 e93d 6903 e4bd 109a de3e
00000280: 12b2 ab3e 4905 2f3e 150b 653e d368 943e
00000290: fb17 3d3b cc1c 25be bdfd d4be 2675 403e
000002a0: 55aa b83d 36fa 543b f9d1 a53e 068b d13e
000002b0: 48e2 8e3e b7be 30bf 7c4e a9be 19d4 99be
000002c0: 8e25 d03e 769a 69be fceb 343d fda6 2e3e
000002d0: eb5b 4f3e 1550 4abe 74de cb3e e597 4cbd
000002e0: 0507 1b3f ae45 99be 5f1f 7abe 687b b5bc
000002f0: c7cb 623e a3b8 d4be 7a6f 163e f68c 2bbe
00000300: f833 f5bd fa8e 04be f729 173e 026d f23e
00000310: 17c2 c7be 673e b0be 7bd1 df3d b788 6a3e
00000320: 3a8c ef3d b988 903c fece 1f3e 570d 4ebe
00000330: a6b4 183e d42c 203e 529e d5be ce8d 6d3e
00000340: e6b9 8a3d 5d9b c23d b0b4 413e 0f26 3abc
00000350: d997 fc3d fae4 05bf d2bb cabe 5efe d33e
00000360: 2fee 23be 3b61 803d 03ee ab3b 6c78 a8bc
00000370: d1a4 573d 50ec c8bc 5bbb d9bc 19e7 fa3e
00000380: 68ca 69be efdf 57be d386 1a3f 489e 973e
00000390: 0fd0 dbbd 58ac ac3d 48b8 09be 19b6 81bd
000003a0: 5d25 c9bc f186 10be 2848 dcbd 24b1 0c3e
000003b0: c12d 80be fee7 18bf 2a9b 69bd 49c1 c1be
000003c0: 4ec8 e83e ef44 f3bd d152 b8bd d479 dcbd
000003d0: 4a48 b3ba fbd3 8d3d 6002 583e 59ad c6bc
000003e0: ae90 053f 0fde 983d c460 23be 8009 cc3e
000003f0: 069b 9f3e 5c32 46be c384 d8bd 2a43 08be
-0.019700306 -0.08811981 0.4514132 -0.3655061 0.059918188 -0.2581932 0.18754748 0.108111456
-0.20205598 -0.267809 0.38699344 -0.36872545 0.27685732 0.28881094 -0.6242224 -0.1426385
0.13155709 -0.18371534 0.27288347 -0.14355223 0.2779101 -0.065825984 -0.40050742 0.08962148
0.16624118 0.24395972 0.19815485 0.17597434 0.39058006 0.14440288 -0.11308117 0.21055545
-0.086572625 0.13011216 0.1671211 0.28699228 0.45300055 -0.31535408 -0.33885822 -0.35028195
0.006556423 0.00083905016 -0.16349521 0.68913954 -0.5522329 -0.15095499 -0.0047946568 -0.3309993
0.5394699 0.23410714 0.23933819 0.0152419135 0.04227545 -0.1481635 0.32705626 -0.25711426
0.15934654 0.048811905 -0.15423684 0.68646836 0.18934655 -0.4498369 -0.010364209 -0.1926264
0.25995398 0.16309223 -0.29238266 -0.20521335 -0.120367125 -0.108235225 -0.04751873 -0.06573867
-0.020486875 0.11970459 0.0112157455 0.28301567 -0.06831996 -0.060775142 0.44451028 0.00568658
-0.2034438 -0.34196782 -0.21805683 -0.057031192 -0.04780338 -0.09302084 -0.17094173 -0.11416969
0.15697283 -0.2882685 -0.44390792 -0.029159065 0.23404303 0.02923677 0.070734344 -0.29039493
0.3309614 -0.11899439 -0.166306 -0.041827675 -0.30492327 0.026638271 0.047361474 0.254594
0.119709395 0.09970988 -0.0036342454 -0.15286785 0.10721624 -0.1721953 -0.22989845 0.046641722
-0.026042527 -0.27731594 -0.1176867 0.39563456 -0.23511055 -0.084095575 0.24259135 -0.14294028
0.26884282 -0.5273737 -0.17444895 0.10662652 -0.24804194 0.011547645 0.06931855 -0.013054301
0.016894935 0.054205637 -0.05832198 -0.49403104 -0.19941993 -0.21143073 -0.15019841 -0.35871935
0.050524898 0.27594084 0.26253283 -0.14473528 0.17832485 -0.0074668187 -0.1959352 -0.048231952
-0.18253598 -0.34349683 0.034515057 0.10812663 -0.11515806 -0.12179888 -0.07639623 0.123248175
0.26631343 0.13666195 -0.5982872 -0.008332154 0.33982843 0.11389175 -0.11133463 0.43476915
0.33534294 0.1709186 0.22367509 0.28986225 0.0028853405 -0.16124266 -0.41599837 0.18794689
0.09016863 0.003249777 0.3238676 0.4092638 0.27907014 -0.6904101 -0.3306769 -0.3004463
0.40653652 -0.22812828 0.044170365 0.17055888 0.20249908 -0.19757111 0.39818156 -0.049949545
0.60557586 -0.29935974 -0.2442603 -0.022153571 0.22148047 -0.41547117 0.14690962 -0.16752991
-0.11972803 -0.12945166 0.14762102 0.4734879 -0.39015266 -0.3442261 0.10928627 0.22903715
0.11696668 0.01764332 0.15606305 -0.20122276 0.14912662 0.156421 -0.4172235 0.23198625
0.067737386 0.095022894 0.18916583 -0.011361613 0.1233365 -0.52302516 -0.3959642 0.41405004
-0.16008829 0.06268545 0.005246879 -0.020565234 0.052647416 -0.024526745 -0.026578596 0.4900444
-0.22831118 -0.21081518 0.60361975 0.29612947 -0.107330434 0.084313095 -0.13449204 -0.063335605
-0.024553949 -0.14113976 -0.1075595 0.13739449 -0.25034907 -0.5972899 -0.05703274 -0.37842777
0.4546532 -0.118783824 -0.09000171 -0.10765424 -0.001367816 0.06925198 0.21094656 -0.02425258
0.5217389 0.07464229 -0.15954882 0.39850998 0.3117296 -0.19355148 -0.10572197 -0.13306871

transformer.transformer_encoder.layers.0.self_attn.in_proj_bias f4 [192]
00000000: e388 71be 2781 b93d 16f8 edbe 79b8 39be
00000010: 2326 d33e e9cc d83e d5ac aebe 5519 b23e
00000020: f0f8 d83d 1655 1f3d 845d 063f 3656 573e
00000030: 9eb3 84be 514c 83be 2f1c 5cbe 20ea 1a3e
00000040: 14dd 9e3e b50c 01bf ed6f 473d 8875 133e
00000050: d972 cebd dd35 e13d 7ea3 9fbe f962 62be
00000060: ec75 1b3e f52e 2b3f 9444 0fbf 6649 e3bd
00000070: 992f 96be 38a6 1fbf 1cd5 f3bc 908c 68be
00000080: 0cc7 363e 36bd e1bd 4759 c6be 4f87 f13a
00000090: a6bf 0cbe ef1c af3d 54bf 3e3e 2c45 81be
000000a0: 6390 923e 4cb0 cfbe 51d3 5ebe 475f 063f
000000b0: 925a ee3e cb73 a23e 18f2 9dbe a6a6 02be
000000c0: e9d4 c13d 7849 15be d7ce 18bf 98ff d4be
000000d0: c42a a73e ee2d 5f3d c597 af3e 7b73 f3be
000000e0: eb5b be3d c1d6 02be d1ff 8f3d 1bad f3bc
000000f0: 6dbf c2bc 6443 2b3e a486 45bd 2457 3b3e
00000100: 62eb ad3e b9eb 9abf bcdd 93bd 52c9 aa3e
00000110: b2c7 f33e 8836 2cbf 5b4f 79bd 18ad 94bf
00000120: e4be 863f 057d 80bf 7135 d93e 97af 9ebf
00000130: 2942 aa3f 5219 7d3f c57d 873f 9a2e 563f
00000140: 8e0d dd3e 0007 c93f b750 e3bf 882e b63f
00000150: 8973 0540 fe63 16bd 8254 0dbf f6de 71bf
00000160: 6ee6 9cbd 8526 73bf 902e 153f 35b1 4abf
00000170: 462a 543f 373b 763f 2d7b 00bc 60a5 853f
00000180: f8b3 15c0 a009 f9bf d26c 0340 f245 0540
00000190: 261e 0d40 1de8 fa3f 14ce 383e 1f52 1540
000001a0: ff5b d13e 00d8 ffbd 3cb8 2a3e 94d3 a03e
000001b0: 6eb4 a5be cfae f1be ff43 e0be f60a e93d
000001c0: 6b2f d73e 3586 2a3f 5123 803f fecd 0f40
000001d0: 20ae efbf f0d0 323d 8f11 313d 9f88 983f
000001e0: 0670 b8bf 8144 dabe bd6e 913d 25bb 16bf
000001f0: dde5 f63e e2d1 203f 9f97 4a3f 9a28 fcbb
00000200: 0442 2bc0 373c 2940 196c 34bf e6e1 9e3f
00000210: b6af a7bf b785 4ebf 893a 433e 2afc 713e
00000220: 86b5 83bf 37e0 693f d11f 70c0 ee9e 443f
00000230: eccc 163f 489b 87bf e799 d73e 677e 1e3e
00000240: c21e 283e 8716 e43f 70b9 373d ab6f 4bbf
00000250: e622 a33f 1802 6ac0 4209 cb3f 1dfa 40bf
00000260: 05f1 353f 4146 41bf 194c 963f 4594 4d3c
00000270: 8b5c 92c0 b811 29bf 6f1b ef3d 87be 32bf
00000280: f5b9 e33f 611d 533e 8533 9c3d 951a 923e
00000290: 63cb 6540 fc57 7840 18fe 0d3f 7870 8cbf
000002a0: d2af c7be f055 3240 6baa e0bd ac42 e73f
000002b0: b387 2140 50f5 0740 fa36 5bc0 8732 30bf
000002c0: 54c9 d2bf c09d 1abd 2bdc df3f f29c 913d
000002d0: 3902 f7bf fd8d 9840 4076 ea3f 5cfc db3f
000002e0: 83d4 96bf 26f6 34bf a801 e23e 1788 80be
000002f0: 5dfa 35c0 199a 2dbf 264d 4cbf 8565 3540
-0.23587374 0.09057837 -0.46478337 -0.18136777 0.41240034 0.42343834 -0.34116235 0.34784952
0.10594356 0.038899504 0.52486444 0.2102898 -0.25918287 -0.25644162 -0.21495126 0.15128374
0.31028044 -0.50410014 0.048690725 0.14400303 -0.10080499 0.10996602 -0.31179422 -0.22108068
0.15181702 0.66868526 -0.55964017 -0.11097984 -0.2933319 -0.62363005 -0.029764704 -0.2270987
0.17849368 -0.11022417 -0.38739988 0.0018427166 -0.13744983 0.085504405 0.18627673 -0.25248086
0.28625783 -0.4056419 -0.21760298 0.5248913 0.46553475 0.31728968 -0.30848765 -0.12758884
0.094644375 -0.14578807 -0.5969061 -0.41601253 0.32649815 0.05448716 0.34295478 -0.47549042
0.09294876 -0.12777235 0.07031215 -0.029745629 -0.02377292 0.16724926 -0.048224106 0.1829496
0.33968645 -1.2103187 -0.07220027 0.3335672 0.47613293 -0.6727071 -0.060866695 -1.1615324
1.0527005 -1.0038153 0.42423585 -1.2397336 1.330144 0.9886676 1.0585257 0.8366486
0.43174404 1.5705261 -1.7759007 1.423295 2.0851767 -0.036716454 -0.55207074 -0.94480836
-0.076611385 -0.9498065 0.58274174 -0.79176646 0.82877004 0.96184105 -0.007841867 1.0441093
-2.3391094 -1.9456062 2.0535169 2.0823941 2.204965 1.9602085 0.18047363 2.3331373
0.408905 -0.124923706 0.16671842 0.3141142 -0.3236422 -0.4720368 -0.43801877 0.11379044
0.42028365 0.66611034 1.0010778 2.2469478 -1.8725014 0.04365629 0.043229636 1.1916693
-1.4409187 -0.4263039 0.071012 -0.5887931 0.48222247 0.62820256 0.79137605 -0.00769527
-2.6759043 2.6443002 -0.70477444 1.2412689 -1.3100498 -0.8067278 0.19065298 0.23631349
-1.0289772 0.9135775 -3.751942 0.7680501 0.58906436 -1.0594263 0.42109606 0.15477906
0.16417983 1.7819375 0.04485458 -0.79467267 1.2745025 -3.6563778 1.58622 -0.7538164
0.7107089 -0.75497824 1.1741973 0.012547557 -4.5737967 -0.6604266 0.116751544 -0.6982197
1.7791125 0.20616676 0.07627014 0.28535905 3.5905387 3.8803701 0.5546584 -1.0971823
-0.39001328 2.7864952 -0.10970005 1.8067222 2.5239074 2.1243477 -3.4252305 -0.688271
-1.646769 -0.0377481 1.7489065 0.07110013 -1.9297553 4.7673326 1.8317337 1.7186389
-1.1783603 -0.7068809 0.4414189 -0.25103828 -2.843406 -0.6781326 -0.7980522 2.8343213

transformer.transformer_encoder.layers.0.self_attn.out_proj.weight f4 [64, 64]
00000000: 2efe 603e e741 1d3d aaee 253e 9e6f 1cbf
00000010: 4eda b23c d54c 97bd 3825 863e 3429 48bd
00000020: 8f55 cf3d 6d77 9ebd c00d b43c 7aaa 3cbd
00000030: 480b 253f a03f 9cbe 2554 9f3e a815 9e3c
00000040: 1cbd 1abe 6c64 11be fa79 243d d242 a13e
00000050: aa6b ef3d 510c 2cbf b00a 643e 1bc1 1abd
00000060: fd05 4abd 51b1 ccbe f637 fc3e 9ae2 c7be
00000070: 7584 923d 4b1e 0c3e c742 d9be 38ce f3bd
00000080: 2669 d03d 46af 87bd 4fe8 653d ca6a 7abe
00000090: b967 943d ac75 bb3e 2637 c33e 467b 3f3e
000000a0: 8dfa f5bd e121 af3d c924 2d3e 88b0 d1bd
000000b0: 406b 493e 740a db3e c9f4 7bbe 71af 2f3e
000000c0: 521a e83e c6c1 9f3e 2772 123f e162 193e
000000d0: 47c6 4fbd bcc4 04bf 6ab2 333f 8b84 32be
000000e0: 429a 97be 718b 38bf 5cf1 67be 8b24 ab3e
000000f0: 614e febd a9f3 de3e 57c6 0ebd 4ce5 c4bd
00000100: d701 f93b 7dcb e93c b592 dabc 535e abbc
00000110: 9f7e 0abd 53b2 9a3c 41d0 843c 322d 253c
00000120: abbb a93c afd1 cabb 92a6 c4bc 0846 0f3c
00000130: b48b 0a3d cd8f 05bc 533e 0ebc 6bae e63c
00000140: b018 843c a2a6 6c3d c558 173d 5e3e 59bd
00000150: 8203 c73c a31b d43b b915 68bc 2408 2e3d
00000160: 89da 1fbd c3c3 38bd 27b3 093c 3c77 893d
00000170: 8c26 573d 15ea 5fbc f377 793c aed3 0cbc
00000180: 193f 1c3d 3ccd df3c 6300 39bc 1c07 e7bc
00000190: a051 813c c636 de3c 4c56 c33c a59b bdbc
000001a0: 749b 44bd 6f33 f23c 175e 10bd 413b 583c
000001b0: d628 4fbd a208 2a3b 3695 5cbc 2b5d 193d
000001c0: 84b4 ecbc 86ec 8dbc 31b0 773c 941b 63bd
000001d0: 0a0b 593c 8707 15bd 122d 4f3c abb2 223c
000001e0: bc36 4e3d 0b24 58bb 48d3 81bc 8667 20bc
000001f0: a1cb 1e3d 77fa 0c3d 8a33 0c3d 7c98 15bd
00000200: f03d 06bd 4c3b 493d dac7 f03b 8c1b 10bd
00000210: 0594 073c 54a9 2fbc 7114 d33b ac60 bfbc
00000220: f1ef d3b9 b120 9ebc 4b51 953c 26d4 183d
00000230: 714b c5bc 353d 9f3c c681 5bbc 6096 863c
00000240: 333b 813c bfe4 0a3d 134d 0e3c 2ca5 353d
00000250: cc91 26bd 6335 643d b0ab 30bb 4950 37bc
00000260: b104 d93c eb6b e7b8 0ee3 d0ba 2f06 793c
00000270: c4d4 a73c 77ca 27bc 8eb6 52bc a91c 87bc
00000280: e3ac 0abd 0a9a 503c fefd fa3c c553 a03b
00000290: f55c 2e3c 5bd3 8ebd 7775 34bc f496 d63b
000002a0: 2ae3 6c3c 8f8a 7a3d b063 8cbd 11da e23c
000002b0: ef57 143d af12 31bd 4805 883c fcd4 61bc
000002c0: a83e d23c ad2e fdbc 0c7f c5bb ec56 ec3c
000002d0: 38ce 113d f3d9 37bd fab2 26bc cbd0 b23b
000002e0: a8bf 50bb 335c 4bbb e833 61bd 25d4 8d3d
000002f0: 9804 4b3b e3a0 cdbc e40f 6d3b 02a3 2abd
00000300: 9976 1a3d a602 92ba 936a ccbc a889 9ebc
00000310: c511 143b cb9c 43bd 03e2 2e3d 27b4 ebbc
00000320: 83f1 90bc f190 eb3b 2d4e 703a ae00 213b
00000330: db65 e8bb 3888 83bc eb7d 10bd b0c0 e43b
00000340: ed2e 6cbc 50f7 b43c 2bd1 983b e17a cfbc
00000350: 8a7e 9d3c 4e83 34bc 163b c63c e44c 81bb
00000360: c07b abbc 9c9d e73b 7006 9bbb e3ba 6ebb
00000370: bd15 2d3c d959 06bc 1fa5 a33b affc ed3c
00000380: 3e81 b03c 2ca8 67ba 7db3 803c f00e cc3b
00000390: 0c1e 96bc 3a59 6d3a 35a9 e63b f938 823c
000003a0: 40d1 81bb d946 4e3c 5f7c 2ebc f478 5abc
000003b0: f26f 973c ff7a afbb fa2e 57bb 0e7f a1bb
000003c0: 18ba f43b 2416 ab3b 7c6e 13bc 94e0 b2bc
000003d0: 6acd c4ba ed8f 8c3c 278d e6ba bba8 7ebc
000003e0: a9c8 b63c d5d6 52bc dda2 d63c 0c3f 0a3b
000003f0: 5b73 ad3b c70f 0c3c d5d0 f8bc 637f 993c
0.21971962 0.038392927 0.16204324 -0.61107814 0.021832611 -0.073877014 0.2620027 -0.04886742
0.10123741 -0.077376224 0.021979213 -0.046061017 0.6447034 -0.30517292 0.31118885 0.019297436
-0.15111202 -0.14198464 0.04015539 0.31496292 0.11690457 -0.67206293 0.22269702 -0.037781816
-0.049322117 -0.39979032 0.49261445 -0.3904007 0.071541704 0.13683431 -0.4243376 -0.119045675
0.101763055 -0.06625228 0.05612975 -0.244548 0.07246346 0.36613214 0.38128012 0.18699369
-0.120106794 0.08551384 0.16908564 -0.10238749 0.19669819 0.42781413 -0.24605097 0.1715677
0.4533258 0.31202525 0.5720543 0.14979126 -0.0507262 -0.5186269 0.70194113 -0.17433374
-0.29609877 -0.7208777 -0.22650665 0.33426318 -0.12417293 0.43545273 -0.03485712 -0.096140474
0.0075990963 0.028539414 -0.026681283 -0.020919 -0.03381216 0.01888386 0.016212584 0.010081576
0.02071937 -0.006189547 -0.024005208 0.008744724 0.033824638 -0.008151961 -0.008681851 0.02815934
0.016125053 0.0577761 0.03694989 -0.053037994 0.024293665 0.006473021 -0.014165335 0.042488232
-0.03902677 -0.045108568 0.00840453 0.06712195 0.052526996 -0.013666649 0.015226352 -0.00859539
0.038146112 0.027319543 -0.011291596 -0.028201632 0.015785992 0.027125727 0.02384486 -0.023145506
-0.047999814 0.029565541 -0.03524598 0.013197721 -0.050576054 0.0025945087 -0.013463309 0.037442368
-0.02889467 -0.017324697 0.015117691 -0.055446222 0.013247261 -0.03638413 0.012645023 0.009930293
0.050345168 -0.0032980468 -0.015847817 -0.009790307 0.038768414 0.03441855 0.03422884 -0.036522374
-0.032773912 0.049128816 0.007348043 -0.03518252 0.008275037 -0.010721523 0.006441646 -0.023361526
-0.00040423826 -0.019302698 0.01822724 0.037311696 -0.024083825 0.019438365 -0.01339764 0.016429126
0.015775299 0.033909556 0.008685368 0.044346973 -0.040666386 0.055714976 -0.0026957802 -0.011188575
0.026491495 -0.0001103504 -0.0015936808 0.015199228 0.020487197 -0.0102411425 -0.012860907 -0.016493158
-0.033856284 0.012732038 0.030638691 0.0048927986 0.01064228 -0.069739066 -0.011014334 0.0065487567
0.014458457 0.061167296 -0.068549514 0.027691873 0.036216673 -0.04323071 0.01660408 -0.01378369
0.025664642 -0.030906046 -0.006027108 0.028850041 0.035597056 -0.044885587 -0.010174507 0.005457019
-0.0031852517 -0.0031030297 -0.054981142 0.06925229 0.003097808 -0.02510113 0.0036172802 -0.041659363
0.03771076 -0.0011139705 -0.024953162 -0.019352749 0.00225936 -0.04775695 0.04269601 -0.028772427
-0.017693287 0.007188909 0.00091669225 0.0024567056 -0.0070922202 -0.016056165 -0.035276335 0.006980978
-0.014415485 0.022090584 0.0046636066 -0.025327148 0.019225378 -0.011017634 0.024198096 -0.0039459337
-0.020933032 0.007068349 -0.004730992 -0.003642731 0.010564265 -0.008200132 0.004994049 0.029051153
0.021546002 -0.000883701 0.015710587 0.0062273666 -0.018324874 0.00090541283 0.007039214 0.015896307
-0.003961712 0.012590134 -0.01064977 -0.013334502 0.018485997 -0.0053552384 -0.0032834397 -0.004928476
0.007468473 0.005221145 -0.0089985095 -0.021835603 -0.0015014831 0.017158473 -0.0017589674 -0.015543158
0.02231248 -0.012868603 0.026200706 0.0021094708 0.0052932925 0.0085486835 -0.030373016 0.0187375

transformer.transformer_encoder.layers.0.self_attn.out_proj.bias f4 [64]
00000000: 1266 e940 4fda cebf 63a5 4ec1 d582 d6be
00000010: 64c4 5b41 fa57 6f3d 7cef 09bf ad7e 8440
00000020: 71e8 b2c0 8ba4 0a40 7b81 b8c0 5b1f 1ec1
00000030: a438 cac0 f272 20c0 54e7 46c0 ef3d f1c0
00000040: ba22 3ac1 d482 20bf 8653 a740 ce2d 07c1
00000050: bac2 4cc0 7a6c 3cbf 9588 efc0 470a 05c1
00000060: 84f0 c03f aab9 32c1 4264 0c41 6eec 1d41
00000070: b655 3cc1 dade 1041 1fe8 ed40 a833 bf3e
00000080: 9491 ecbf 582d ca40 fc73 7f40 af3d 27c0
00000090: e9e5 2b40 a588 e03f de88 0b41 87b0 5fc0
000000a0: 8419 9dc0 a3a6 1241 4b7f 53c1 8010 3041
000000b0: b3e3 11c0 7438 8040 255f 1940 f43b dc40
000000c0: ba50 e03f 6f88 dd40 b067 1a41 b612 0ac0
000000d0: af8d a83f d4c6 9340 13c1 7240 ed75 1a41
000000e0: 1442 0040 5d9e 3040 34c5 d23f be46 d540
000000f0: ebd4 85c1 4a5e 4341 86eb cbbd 2a55 fe3e
7.2937098 -1.6160372 -12.915378 -0.41896692 13.735447 0.05843351 -0.5388105 4.1404634
-5.590874 2.166293 -5.7658057 -9.882655 -6.319414 -2.5070157 -3.1078691 -7.5388103
-11.633478 -0.6269963 5.2289457 -8.448683 -3.1993852 -0.7360302 -7.4854226 -8.315009
1.50734 -11.170328 8.774477 9.870222 -11.7709255 9.054407 7.434585 0.37344098
-1.8481927 6.318035 3.9914541 -2.6131399 2.6859076 1.7541701 8.720915 -3.4951494
-4.9093647 9.165683 -13.218577 11.004028 -2.2795227 4.0068913 2.3964322 6.8823185
1.7524636 6.9229045 9.650314 -2.157392 1.3168238 4.618021 3.7930343 9.65379
2.004033 2.7596657 1.6466432 6.6648855 -16.728964 12.21052 -0.09957032 0.4967435

transformer.transformer_encoder.layers.0.linear1.weight f4 [256, 64]
00000000: 9b70 cc3b bb19 b53d 2bbd 853d e22e 9bbd
00000010: 7893 92bd f334 87bc e51f ccbd 4d69 8f3e
00000020: 7a8c 75be c207 573e fcc2 0fbe 4aeb f5be
00000030: 421b 833e 8548 b73e acb0 97be cb75 253c
00000040: 0efb d53c 7aff fc3d 01ba 483d 5bca 25be
00000050: 0c5d 1bbe 133d 8f3d d9c3 e43d 640b 8e3b
00000060: 3836 a5bd d363 733d 495b 103e 1125 39be
00000070: 5ee9 47bd a6fa 6fbd 5071 48be 6276 3bbd
00000080: 7ae8 86be 9355 7f3d 6465 da3d 6619 5dbe
00000090: df9e b93e bcca 52be 0a08 443e 3b03 573c
000000a0: 3871 88be 1b2b 9d3d 4553 3abc 2551 663e
000000b0: b4b0 8fbe d4cb 55be 936c d73d 4b0f b63e
000000c0: 5046 a4bd 2dd7 a83e 11dc 09bd 67b1 a5bd
000000d0: 4124 2abd 9f77 c13d 4c2c 89be 985d 5cbe
000000e0: 1739 d63d 6d9f c9bc 4029 bb3e 7e8e 933e
000000f0: 3c4d 083d caea 08be da67 823e 9e77 1abe
00000100: 1679 33bf 6e18 653e 075d 803e cf0c 07be
00000110: ec54 3abf 30d5 ee3e 86cf f93c ae0e 35bf
00000120: 30fc 8ebe 5eff 363c 03ec 103f ded2 ea3e
00000130: 4412 eb3e ce30 f53e 4fb2 b63e c940 7e3e
00000140: 0128 a13e 0310 a0bd 8bc8 34bf 43e9 6a3e
00000150: 7d55 913e ff42 0cbd 1ee3 073f 597e e4be
00000160: f26a 2a3e d5f4 de3e 09d4 bbbe 4242 3bbf
00000170: b353 e73b 0bc4 c73d 04c1 c0bb ebd1 9abe
00000180: 5f7a dcbd eaf3 93be d326 ea3d d5ea 8f3e
00000190: 97c9 11bf 0491 b73d 000e d9be 7601 e53e
000001a0: 6810 c9be d99c 3a3e ce91 af3e fd39 26bd
000001b0: 260e 753e 9e88 52bd 4f47 a5bd 58d1 7bbe
000001c0: cbba e03e 420a 80bd a518 95be dcbc 03be
000001d0: 03b4 00bf 3d17 973c 43a3 2a3e 6d7d 4cbe
000001e0: 08ed 023e 8486 003e 7efc b3bc e696 d33d
000001f0: 8b0e f43e dd44 a5be 57f9 313f 997a 223e
00000200: e9e4 c43b 3e96 c2be 1a73 e93c 90ad 303e
00000210: ca8b 2cbc 9b76 9fbe ba21 45be 2137 223e
00000220: 1db0 03be dd51 babe a97d af3d 70f1 3bbd
00000230: a7da 063e c183 56be 4dc7 44be 75c6 113d
00000240: 6a14 1a3e b916 373e 755f 923e 1965 2cbe
00000250: 334a 783d b9aa e3be 2583 373e 2175 673d
00000260: d2d2 f03d 6a25 a03e b9bc b8bc b6b8 94bd
00000270: 95c5 013e 136d d33d 2072 f9be e95d 113d
00000280: d878 3ebe 3f0a 3bbd c16c d3bd 8416 52bf
00000290: b60d 3f3b 796c 363d 6234 6cbe c087 28be
000002a0: c0f9 bfbd 032e b2be 7561 773e 336d 2a3d
000002b0: df59 fc3d dde2 0e3e 1dc5 9c3e b6a6 363e
000002c0: 223e 36be 1b02 d93e c60a 37be fad6 1d3e
000002d0: b367 9e3e 96ff f4be 2722 613d 9b10 523e
000002e0: bd65 0c3d bc10 1d3e b9fa 9e3e 250d 8cbe
000002f0: bb4d 1e3e 0c93 653e d292 623f 60bb 8a3c
00000300: 3e12 2ebe 4dbf 2cbc 58b3 903d 11fb b4be
00000310: 2d20 b93c 2c5b d1bb 653b c7bd 6176 4c3d
00000320: 5e60 b43d 808c 053f f713 f53e 58f8 60be
00000330: 9203 a7be 0ff3 2f3e daea 9bbd b234 953e
00000340: e789 c1bb 9915 b13d 3d68 c2be b941 c7bc
00000350: a1c1 d63e b24a 3f3f 1e7a 5abd 17af 62be
00000360: 921c d43d e4d4 d7bb 1c62 6ebe 822e 4fbe
00000370: 7a56 e5bd 8e9a 9cbe 5ba0 1abf 2a07 68be
00000380: 79b4 693e 7bcc c2b9 732a 1c3d 6380 763d
00000390: fe2d 1f3d f9c3 32bd 0989 82bd 05bf 8abd
000003a0: 4cdb 0bbf e418 5abd e95f 2d3e b912 a63e
000003b0: 5e60 c6be 4676 1b3f 3306 7a3d 97da 07be
000003c0: e2cd e03e 09cd 803e 9999 423e 6124 683b
000003d0: af16 a23e ae27 90be 92a6 7f3c 6818 71bc
000003e0: 3df5 833e c18d 823d 219a 5d3e cf29 893d
000003f0: fad4 263e de28 ba3e 1669 6e3d 61fb 0d3f
0.0062390096 0.08842798 0.065302216 -0.075773016 -0.07157034 -0.01650474 -0.09967021 0.28010026
-0.23979369 0.20999053 -0.14039224 -0.48031074 0.25606734 0.35797516 -0.29626977 0.010098885
0.026120689 0.12353416 0.049005512 -0.16190474 -0.15172213 0.06994071 0.111701675 0.004334854
-0.08066982 0.05942137 0.14097323 -0.18080546 -0.04880654 -0.058588646 -0.19574475 -0.045767196
-0.2634924 0.06233747 0.1066387 -0.2159172 0.36254022 -0.2058515 0.19143692 0.013123329
-0.2664888 0.07674237 -0.011372392 0.22491892 -0.280645 -0.20878536 0.10518756 0.35558543
-0.080212235 0.32976666 -0.033657137 -0.080904774 -0.04153848 0.09446644 -0.26791608 -0.21520078
0.10460108 -0.024612153 0.3655491 0.2881965 0.03327678 -0.13370815 0.25469857 -0.15084693
-0.7010664 0.223726 0.25070974 -0.1318848 -0.7278583 0.46647024 0.030494463 -0.70725524
-0.2792678 0.011169283 0.56610125 0.45864004 0.45912373 0.47888798 0.35682914 0.24829401
0.31475833 -0.07815554 -0.70618504 0.22940545 0.28385535 -0.03424358 0.5308093 -0.44627646
0.16642359 0.43546167 -0.36685207 -0.73147976 0.0070595383 0.09754189 -0.0058823843 -0.3023828
-0.10765528 -0.2889703 0.114331864 0.2810885 -0.56948227 0.089632064 -0.42393494 0.44727677
-0.3927033 0.18223895 0.34290928 -0.040582646 0.23931178 -0.05139982 -0.08070242 -0.24591577
0.43892512 -0.062519565 -0.29120365 -0.12865013 -0.50274676 0.018443698 0.16663842 -0.19969721
0.12785733 0.12551314 -0.021970984 0.10331516 0.47667345 -0.322791 0.6952109 0.1586708
0.0060087335 -0.3800525 0.028497268 0.17253709 -0.010531375 -0.31145176 -0.19251147 0.15841343
-0.1286015 -0.36390582 0.0856889 -0.04588455 0.13169347 -0.20948698 -0.19216652 0.035589654
0.1504685 0.17879762 0.28588453 -0.1683544 0.060617637 -0.4446619 0.17921121 0.056508187
0.11758961 0.31278545 -0.022550927 -0.07261793 0.12673028 0.10323539 -0.48719883 0.03548995
-0.18600786 -0.04566407 -0.103234775 -0.82065606 0.002915246 0.04453704 -0.23066857 -0.16458035
-0.09373808 -0.3480073 0.2415827 0.041608047 0.12321829 0.13953729 0.30619135 0.17837033
-0.1779714 0.4238442 -0.17875203 0.15414038 0.3093849 -0.47851247 0.05496421 0.20514147
0.034276713 0.15338415 0.3105066 -0.27353778 0.1545934 0.22419375 0.8850528 0.01693505
-0.16999146 -0.010543657 0.07065457 -0.35347798 0.02259835 -0.0063890424 -0.097281255 0.049917582
0.08807443 0.5216751 0.47866794 -0.21969736 -0.3261991 0.17182563 -0.07613154 0.29141766
-0.005906332 0.086466976 -0.37970152 -0.024323331 0.41944602 0.7472335 -0.053339116 -0.22137104
0.10357012 -0.006586658 -0.23279613 -0.20232585 -0.11198135 -0.30586666 -0.60400933 -0.22658983
0.22822751 -0.00037154913 0.03812642 0.060181033 0.03886222 -0.043643925 -0.06373794 -0.06774715
-0.54631495 -0.053246394 0.16931118 0.3243616 -0.38745397 0.60727346 0.06104107 -0.13266979
0.43907076 0.2515643 0.19003905 0.0035422074 0.3165793 -0.28155273 0.015603678 -0.014715292
0.2577304 0.06374694 0.21640827 0.066974275 0.16292182 0.36359304 0.058205687 0.554617

transformer.transformer_encoder.layers.0.linear1.bias f4 [256]
00000000: 4786 64be 32a0 28bf cbf6 83be b1e0 a1be
00000010: b320 26bf 788f 42be 3053 7ebe 7eca fabe
00000020: 538e bdbe 0f3c 1dbe 7018 b7be b597 3ebe
00000030: f0ad 36bf 1687 9cbe 33c3 c8be 5b58 eabe
00000040: 271a 1fbf 5b9e ebbe 796f b4bc b54a f7be
00000050: a558 36be 0dfb 2fbf 3c0e 55bf 85e8 3fbe
00000060: 27b5 22be 0b29 2bbf 63f6 f53c 5041 23bf
00000070: 2a36 10bf 1b3d 63be 8e02 73be 1067 f5be
00000080: 531f 6cbe a099 44bf 664d 25bf d66f 61be
00000090: 565b 1cbd 5fb2 eabe 57c3 25be 2950 6fbe
000000a0: ad32 9bbe 7504 33bf 825d f6be ec0d 7fbe
000000b0: 400b ecbe ba56 0ebe 83ff b6be b8ed da3d
000000c0: c03c 69be 9aee 0fbf 8ac8 f8bd 6542 bdbe
000000d0: 90e2 27bf 8014 33bf 641d debe 4044 58be
000000e0: 3490 b9bd d0cb d7be 8b42 a6be 5116 78be
000000f0: ac20 bebe fb83 0fbf d357 0ebf b18d 94be
00000100: b47e d2be af7c 0fbf fd36 1ebf f331 4abf
00000110: 7180 dbbe 65a9 d0be 854e 20be 5cfc 4cbe
00000120: 96f0 14bf faea 0dbf 1f57 893e b716 37bf
00000130: bfad e5be 5ae5 01bd f73c 03bf c0f2 c1be
00000140: a2c8 90bd f404 c5be f45a 1abf d606 2fbe
00000150: 1698 11be 2c09 3ebf e020 2bbf 1b17 fabe
00000160: 1c06 e2bd a6eb 9bbc c76f 33be 5a24 9ebe
00000170: 7adc b93d 0a66 25bf 8709 5dbe 550c 03bf
00000180: aea6 f9be a055 9cbe 7fe2 7bbe 5c84 3fbe
00000190: 0db6 19bf 4f15 b3be c380 1fbf 416a 01bf
000001a0: 6e9b edbe 13ac 9fbc 07c3 05be 8233 c6be
000001b0: a578 b63d 6968 d6be 5193 cbbe 70e4 c0bd
000001c0: e383 9abd 040a ddbe b5d9 b4be 12fc 89be
000001d0: 94f5 73be 7a26 74be 8aae 2bbf edd2 3ebc
000001e0: b2a7 d9be 6b22 0dbf 5d1b 36bf 8bf4 09be
000001f0: 5d84 6fbd 6ceb 13bf 325d f3bd 4501 d1bc
00000200: ebf4 7cbf ec38 39bd d600 1bbf 3b7e 6fbe
00000210: 5b41 97bd 2f17 b3be ca43 853d 24e5 0dbe
00000220: a650 c1be 85d1 d2be 6148 37be fa35 0fbf
00000230: e5e8 a8be 5f4b aebe 73e0 84be 98da f1be
00000240: 0237 a6be 4bee 05bf f334 55be a75f e9be
00000250: 23ef 37bf 698c 1dbf 3292 2bbf 1b3a d9be
00000260: 7ff6 f9be 16b7 1bbf ddc2 dbbe 4878 22bf
00000270: face aabe dbaa 8fbe d8fa c2bd 5683 e0be
00000280: dd44 00bf eb76 48bf ddcd b2be f722 b3be
00000290: b5bd 45bf 48a9 eabe ed8a 36bf d91f ebbe
000002a0: 81a9 1cbf 662b eebe ca60 2cbf ea7f d4be
000002b0: 76c9 03be 8cfb 0abe 42fa bbbe 6e0f dbbd
000002c0: 9c19 5bbf 3381 9ebe d060 05bf 2a95 cbbe
000002d0: 1609 9f3c fe74 12be ca56 7ebe 7f47 cbbc
000002e0: db89 35be 5d26 6cbf 1d5b ce3b b86b 53be
000002f0: d10e 80be ad76 b63c f454 ffbd 032a 31be
00000300: 87bd 6abc e146 96bc ffc8 bbbd cc47 17bf
00000310: ab76 13bf 177e 45be 3d07 e1bd 8920 24bf
00000320: 39c4 0dbf 286f 72bf f82c d7be e48e c5bd
00000330: d472 47bf 9de4 cebe 4fbd 9cbe 77bc 56be
00000340: 25bf 39bf 0200 d0be a961 28bf 6d02 97be
00000350: 0b55 3fbf c99f 27bf c13b 15bf 76ff 233e
00000360: 9335 98be fd2a d2be 2041 a2be f964 cebe
00000370: 37a3 c0be e628 84be a584 aabe 0e4e 88be
00000380: 9cc2 18bf 423f 3cbe 4254 89be b7ba 8dbd
00000390: 61da fdba 1f37 6c3d f3bb bdbe ac1c b4be
000003a0: 5d30 34bf 4038 8ebd f056 babe a987 c9be
000003b0: d558 7abe ba65 a5be d85d 67bf 311f 8bbe
000003c0: 5a73 44bc 737e 37bd cab3 07bf f9a2 2bbf
000003d0: 19e7 63be 6719 f3be eed7 25bf 6d8b aabe
000003e0: a04f bfbe 4c81 943c 4568 4dbc fcbf b9bd
000003f0: f09c 51bf d88a 24be 1bd0 8dbe a2bc 1fbe
-0.22316848 -0.6586944 -0.25774226 -0.31616738 -0.64893645 -0.19000041 -0.24836421 -0.48982614
-0.37022647 -0.15354942 -0.35760832 -0.18612559 -0.7135916 -0.30571812 -0.39211425 -0.45770535
-0.6214928 -0.46019253 -0.02202581 -0.48299184 -0.17807253 -0.6874245 -0.83224845 -0.18741043
-0.15889417 -0.668595 0.030024713 -0.63771534 -0.5633265 -0.22191279 -0.23731443 -0.47930193
-0.23058824 -0.76796913 -0.64571226 -0.22015318 -0.038173042 -0.4583921 -0.16187797 -0.23370422
-0.303121 -0.69928676 -0.48118216 -0.24907655 -0.46102333 -0.13900271 -0.35741815 0.106898725
-0.2277708 -0.5622345 -0.12147625 -0.36964718 -0.6558008 -0.69953156 -0.43381798 -0.21119785
-0.09060708 -0.42147684 -0.32472643 -0.24227263 -0.37134302 -0.5606076 -0.5560276 -0.29014352
-0.41112292 -0.5604963 -0.61802655 -0.78982466 -0.4287143 -0.40754238 -0.15654953 -0.20018142
-0.58179605 -0.5543667 0.2682428 -0.71519035 -0.4485912 -0.031712867 -0.512649 -0.37880516
-0.07069518 -0.3848034 -0.60295033 -0.17092451 -0.14218172 -0.74232745 -0.6684704 -0.48845753
-0.110363215 -0.019033264 -0.17523108 -0.3088711 0.09075256 -0.64608824 -0.21585666 -0.5119069
-0.4875998 -0.30534077 -0.2459812 -0.18702835 -0.6004341 -0.34977195 -0.6230585 -0.50552756
-0.46407646 -0.019491231 -0.13062678 -0.38711172 0.0890973 -0.41876534 -0.3976083 -0.09418571
-0.07544687 -0.43171704 -0.35322347 -0.26950127 -0.2382415 -0.23842803 -0.670632 -0.011646968
-0.42510754 -0.5513064 -0.71135503 -0.13472192 -0.05847584 -0.577811 -0.1188301 -0.0255133
-0.98811215 -0.0452203 -0.6054815 -0.23387997 -0.073855124 -0.34978625 0.0650707 -0.13856941
-0.37756842 -0.41175476 -0.17898704 -0.55941737 -0.32990184 -0.3404188 -0.2595249 -0.47237086
-0.32463843 -0.5231673 -0.2082098 -0.4558079 -0.7184927 -0.61542374 -0.6701995 -0.42427143
-0.48820874 -0.6082624 -0.42922106 -0.63464785 -0.33361036 -0.2806004 -0.09520501 -0.438502
-0.5010508 -0.78306454 -0.34922686 -0.34987614 -0.77242595 -0.45832276 -0.71305734 -0.45922735
-0.6119614 -0.46517485 -0.6733519 -0.4150384 -0.1286982 -0.1357252 -0.3671437 -0.10696302
-0.8558595 -0.30957946 -0.5210085 -0.3976224 0.019413512 -0.14302441 -0.24837795 -0.024814365
-0.17728369 -0.9224604 0.0062974826 -0.2064656 -0.25011304 0.022273386 -0.124673754 -0.17301182
-0.014327413 -0.018344345 -0.09169196 -0.5909393 -0.5760295 -0.1928638 -0.10987709 -0.64112145
-0.55377537 -0.9470086 -0.42026496 -0.09646395 -0.7790959 -0.40408793 -0.3061318 -0.20970331
-0.7255729 -0.40625006 -0.6577402 -0.29494038 -0.7473914 -0.6547819 -0.582943 0.1601542
-0.29728374 -0.41048422 -0.3169031 -0.4031141 -0.37624523 -0.25812453 -0.33304325 -0.2662205
-0.5967195 -0.18383506 -0.26822096 -0.06920379 -0.001936745 0.057669755 -0.37057456 -0.35178125
-0.70386297 -0.069443226 -0.36394453 -0.39361313 -0.24447949 -0.32304174 -0.9037757 -0.27172235
-0.011990393 -0.044798326 -0.5300871 -0.6704555 -0.22256126 -0.47480318 -0.6478261 -0.33309498
-0.37365437 0.01812806 -0.012537067 -0.09069821 -0.8188009 -0.1606859 -0.27697834 -0.15599301
