FFTbest_classification_model.pth (torch, 655756 bytes, 41 tensors)

transformer.input_projection.weight f4 [64, 14]
000000 4a 7d c1 3d 9d b5 06 3d 69 0c ea ba 0a 09 b1 3c
       0.09447725 0.032888044 -0.0017856482 0.021610755
000010 1a c0 76 3d 1d 68 97 bc ec 96 67 3c 10 d5 7b bc
       0.060241796 -0.018482262 0.014135104 -0.015370622
000020 93 1c 02 3c 54 38 63 3d 6c 5e 23 3e a5 86 86 3d
       0.007941383 0.05547364 0.15953988 0.0656865
000030 8e bb b5 3d f7 fe 88 3d b1 2e 4e bd 11 be c9 3d
       0.08873664 0.06689256 -0.050337497 0.098507054
000040 55 04 c2 3c 94 31 8c b9 32 de 97 bd 0c 05 98 bc
       0.023683706 -0.0002673982 -0.07415427 -0.018557094
000050 55 e1 40 3d e4 98 c9 bc af 1b 59 bd ca 1e 0f 3c
       0.047089893 -0.024609037 -0.053004917 0.008735368
000060 dc 21 8b bd 48 56 7e 3d ba d5 bf bd 87 12 5d 3c
       -0.067935675 0.062094003 -0.09366937 0.013493187
000070 f4 5a a7 3d 07 dd 98 bd 8e 4a 86 bc 88 6d 89 3c
       0.08171645 -0.074640326 -0.016392972 0.016775861
000080 0f b1 c7 bd 18 67 ae 3d 74 fc 10 bc d6 f0 8d 3d
       -0.09750568 0.08515757 -0.008849252 0.069307014
000090 40 bc 3b 3d 10 17 bc bc d7 b2 cb 3d 14 34 96 3d
       0.045833826 -0.022960216 0.0994622 0.07334152
0000a0 c5 cb 00 bc 4f 1d e4 bc 20 c3 1d 3d 03 76 11 bd
       -0.007861082 -0.027846007 0.038516164 -0.035512935
0000b0 c4 47 31 bd 94 97 a6 bd 9a d7 43 3d 50 87 9b 3b
       -0.04328133 -0.0813438 0.047813036 0.004746355
0000c0 95 f2 23 3d e2 83 fd 3d 7f b9 e1 bc ab 6c 2a 3e
       0.040026266 0.1237867 -0.027554272 0.16643016
0000d0 7f b7 f4 bc 14 26 80 bd 1c 2b 00 3e 61 c4 83 bd
       -0.029872654 -0.06257263 0.12516445 -0.06433941
0000e0 92 6f f0 3b 9a 14 b3 bd 7a 54 a7 bd 52 eb b2 3d
       0.007337519 -0.08744164 -0.081704095 0.0873629
0000f0 33 b7 61 bd 8a df 14 3d 03 ae 7a bc e2 cd 6b bd
       -0.055106353 0.036345996 -0.015300277 -0.057569392
000100 19 3e d0 3d bb 38 e9 bd 38 ad c7 bd 8b a4 53 3d
       0.10168094 -0.113877736 -0.09749836 0.051670592
000110 86 04 14 be 01 76 b9 3c 88 90 5a 3d 51 db 0a bd
       -0.1445485 0.022639276 0.053360492 -0.033900563
000120 c7 a9 84 3c 4d 9a 9e 3d 2c ff 2c be a6 61 44 bd
       0.016194237 0.07744274 -0.16894215 -0.047944687
000130 59 d8 8b 3c 72 99 6a 3c 7e 4a 29 3d 61 42 ef bd
       0.017070936 0.014318811 0.041330807 -0.11682583
000140 fe b5 59 bd 0f 4c c4 3d ae fc c9 bd 77 06 96 bd
       -0.053152077 0.095848195 -0.09862648 -0.07325452
000150 7f a9 3c bc 60 3b 97 bd 7f 84 ee bc 97 1d b9 3a
       -0.01151502 -0.07384372 -0.029115913 0.0014123198
000160 00 d9 fd bc 00 af cd bd 67 49 1d bd 73 03 0f bd
       -0.030987263 -0.10043144 -0.03840008 -0.0349154
000170 71 29 6c bd 87 40 4d 3d c2 72 59 3c 57 6f d1 bd
       -0.05765671 0.050110366 0.013271989 -0.102263145
000180 47 38 13 3d 5c 0f b5 bc 77 8f d3 3d a0 86 7a 3d
       0.035942342 -0.02210205 0.10330098 0.061163545
000190 73 4b 18 be 96 5f 9f bd 6d 6b 48 3d 61 1c 1d 3d
       -0.14872532 -0.077819034 0.048930574 0.038357142
0001a0 d5 f2 76 bd d0 d5 c0 3d 19 17 83 3d f1 37 be bc
       -0.060290176 0.094157815 0.0640089 -0.023220034
0001b0 5f 1c 0e 3e 26 9f 3c bd 18 ea c0 3d cb 26 64 bd
       0.1387801 -0.046050213 0.0941965 -0.05570106
0001c0 72 ac 94 3c 45 70 7a 3d 7a 0a 2c 3e 21 0b e6 3c
       0.018148635 0.061142225 0.16800871 0.028081479
0001d0 fb 58 bf 3d e4 08 7f 3d 3f 3c 06 bd 14 79 db 3c
       0.093431436 0.062264338 -0.0327723 0.026791133
0001e0 44 66 4a 3d 4d a8 7f bc bc 72 b5 3d 2b cd ce bd
       0.049413934 -0.015604091 0.088597745 -0.100977264
0001f0 2d fc 3d 3c d7 14 24 3d 82 63 ab 3c 40 07 4f 3d
       0.011595768 0.040058937 0.020921472 0.050544024
000200 de 18 84 bd fb 21 cb bb 16 45 52 3e d7 b7 7d bd
       -0.064500555 -0.006199119 0.20534167 -0.0619429
000210 70 1b 92 3d 2a 89 9f 3d 76 40 2a 3d 56 88 2e 3e
       0.071341395 0.07789834 0.04156538 0.17044196
000220 a6 cf 3d 3d 8d 55 e4 bd 96 0c a9 3d 76 e8 07 bc
       0.046340607 -0.1114913 0.08254354 -0.008295169
000230 56 24 9a 3d 11 5c b0 3c f7 ce 1c bc 89 60 5a 3d
       0.07526462 0.021528276 -0.009570829 0.05331472
000240 25 24 8b 3d 42 16 0d 3d 4e 20 45 bd 4b 71 9d 3d
       0.067940034 0.034445055 -0.04812651 0.076876245
000250 42 0d 39 3c 3a f5 d4 3d 72 c2 89 bb 12 58 f2 3d
       0.011294665 0.10398336 -0.004204088 0.11833204
000260 4c 67 84 bd 06 48 32 3d 73 16 56 bb 68 d3 8c bd
       -0.06465015 0.04352572 -0.003266719 -0.0687626
000270 d1 c2 da 3d c0 12 3d bc 52 f7 37 bd ae f0 0d 3d
       0.106816895 -0.011540115 -0.044913597 0.03465336
000280 7d 57 9f bd 32 7e c1 3d f0 3b 37 3d bf c4 d5 3d
       -0.07780359 0.09447898 0.044734895 0.10437917
000290 63 c1 ea bd 40 47 03 3d 2d d9 10 3d 3c 7a 84 bd
       -0.11462667 0.03205037 0.035363365 -0.06468627
0002a0 07 52 b3 bc 69 c4 55 bd e6 d4 8a 3c 12 38 01 bd
       -0.0218897 -0.052189264 0.016947221 -0.031547613
0002b0 fe 39 2b 3d e2 da 2b bd ac b9 36 bd 77 a8 1e 3d
       0.041803353 -0.04195679 -0.044610664 0.03873488
0002c0 b4 bc ad bd cc 18 13 3e e3 9f c5 3d 59 0a d6 bd
       -0.08483258 0.14364928 0.096496366 -0.104511924
0002d0 f8 76 a6 bd 70 57 ce bc 82 41 77 3d 73 c3 c8 bd
       -0.0812816 -0.025188178 0.060365207 -0.09802904
0002e0 03 df fc 3d c2 ba 02 bb d4 c2 3f 3d 20 aa a9 3d
       0.123472236 -0.0019947742 0.046816662 0.08284402
0002f0 1e 46 8c 3c aa 47 ad 3c 0b 6e e2 3c 44 ae 46 bd
       0.017123278 0.021152336 0.027640363 -0.048506036
000300 d6 10 dc 3d 92 fb ac ba 1d 48 04 3d 70 53 2e 3d
       0.10745399 -0.0013197532 0.032295335 0.04256004
000310 8b 71 8f 3d 18 51 14 bd 15 d9 20 be bd 5c 46 3d
       0.070040785 -0.03621015 -0.1570781 0.048428286
000320 6e 15 db bd 72 1a d6 bd a5 89 12 3c 2a 3e ad bd
       -0.10697447 -0.10454263 0.00894395 -0.084591225
000330 78 ef 96 bd 00 1e d3 3b 63 4b 2e bd 52 61 d8 3d
       -0.07369894 0.0064427853 -0.042552363 0.105654374
000340 9b d2 5c 3d f1 9d 26 bd ba a7 87 3d e3 36 1c bd
       0.053911787 -0.04067797 0.06623788 -0.03813828
000350 2e 13 6a 3c 65 44 8b 3d 35 5b 21 3d a5 dd 55 3d
       0.014286799 0.068001546 0.039393622 0.05221333
000360 8a ba 09 bd 14 7a 7b 39 c2 a8 97 3d 31 b6 65 3d
       -0.033625163 0.00023982703 0.07405235 0.056081954
000370 c2 9f eb bd 50 a2 d5 bd d7 b2 c2 3c f2 0b 56 bd
       -0.11505081 -0.10431349 0.023766918 -0.052257486
000380 59 a4 8f ba 94 b0 99 bc 9f 94 95 3d 4d c8 2c 3d
       -0.0010959014 -0.018760957 0.07303738 0.04218321
000390 64 19 a7 bd ec fb 5c 3d d9 8d c2 bb ea 4e ac bd
       -0.0815914 0.05395119 -0.0059373197 -0.08413489
0003a0 db 84 f7 bc ed 4e d5 bd 34 72 80 bc 61 89 41 bc
       -0.030214718 -0.104154445 -0.015679456 -0.011812539
0003b0 d9 9e 0d be 8f c4 50 3d 1b 71 41 3d 60 f6 78 3d
       -0.13830127 0.050968703 0.047227006 0.060781837
0003c0 4a db a1 3d 01 67 94 3c 39 3b e6 3d 95 08 1a 3d
       0.07903154 0.018115522 0.112417646 0.03760584
0003d0 ec 37 d5 3d 61 02 8a 3b a2 c6 11 be b4 e2 a7 bd
       0.10411057 0.0042117094 -0.14235929 -0.08197537
0003e0 3e 7e 92 3c 73 3f 14 be 92 b1 a4 3c a2 e7 12 bd
       0.017882463 -0.14477329 0.020104203 -0.035865434
0003f0 46 a5 49 3d 30 d5 eb bd df 24 da bd 98 c1 67 3c
       0.049229883 -0.11515272 -0.10651564 0.014145277

transformer.input_projection.bias f4 [64]
000000 a2 af 6e be 7b e5 43 be c8 ae 12 be c5 27 12 3e
       -0.23309186 -0.19130509 -0.14324486 0.14272983
000010 05 62 d8 3d 01 6e f7 3b b0 58 c3 bc 3b 7f 52 3e
       0.10565571 0.0075509553 -0.023846 0.20556347
000020 c5 f8 82 be 2a f8 13 3e fd 12 74 3d 01 11 24 be
       -0.2558042 0.14450136 0.05958842 -0.16022111
000030 64 d3 b9 bd 71 5c 8b be 70 8b 40 3e 3f 2c 23 3e
       -0.09073523 -0.27218965 0.18803191 0.15934847
000040 d6 af 41 be fd 8e e0 3c 4a 15 48 3e 72 16 0f be
       -0.18914732 0.027411932 0.19539371 -0.13973406
000050 23 ae 22 be 31 b1 82 3d 59 8f 2b 3d 76 34 85 be
       -0.1588674 0.06381453 0.041884754 -0.26016587
000060 56 82 8f 3e c3 6c 30 be 61 3e 5c 3d 30 56 6a 3e
       0.28029126 -0.1722899 0.053770427 0.2288444
000070 90 5d a1 be 25 04 a7 3e c4 3c aa 3d 84 df 23 be
       -0.31516695 0.3262035 0.083123714 -0.16003233
000080 03 a1 3a be 1b f1 87 be 4f ce 49 bd a5 d4 42 be
       -0.18225484 -0.26551136 -0.049269017 -0.1902643
000090 f7 27 09 be d8 5e c6 3d d5 27 0f 3e 3a 56 55 be
       -0.13394152 0.09686059 0.13980038 -0.20833674
0000a0 35 7e 30 be e2 b1 a1 3e ca 99 96 be ba 6f 19 3e
       -0.17235644 0.31581026 -0.29414207 0.14984027
0000b0 26 25 86 bd 2c 8d 1c bd 7f 34 67 be 28 af dd 3d
       -0.06550054 -0.03822057 -0.2257862 0.10824424
0000c0 c4 f7 80 3e 00 8d ba 3e 4c c3 7a 3e ef 15 5e be
       0.2518903 0.364357 0.24488562 -0.21688055
0000d0 5e f6 22 bd 9e 93 c8 3c 73 d3 5e 3e 7f d1 b7 3d
       -0.039785735 0.024484452 0.21760349 0.08975505
0000e0 a3 49 60 be 59 5b 92 3e ef 61 b2 3d db 89 01 3e
       -0.2190309 0.28585318 0.087100856 0.12650244
0000f0 6b c2 1e be 2d 0f 5c 3d c9 61 c2 bd 24 26 42 3e
       -0.15503852 0.05372541 -0.09491307 0.18959862

transformer.positional_encoding.pe f4 [1, 129, 64]
000000 00 00 00 00 00 00 80 3f 00 00 00 00 00 00 80 3f
       0.0 1.0 0.0 1.0
000010 00 00 00 00 00 00 80 3f 00 00 00 00 00 00 80 3f
       0.0 1.0 0.0 1.0
000020 00 00 00 00 00 00 80 3f 00 00 00 00 00 00 80 3f
       0.0 1.0 0.0 1.0
000030 00 00 00 00 00 00 80 3f 00 00 00 00 00 00 80 3f
       0.0 1.0 0.0 1.0
000040 00 00 00 00 00 00 80 3f 00 00 00 00 00 00 80 3f
       0.0 1.0 0.0 1.0
000050 00 00 00 00 00 00 80 3f 00 00 00 00 00 00 80 3f
       0.0 1.0 0.0 1.0
000060 00 00 00 00 00 00 80 3f 00 00 00 00 00 00 80 3f
       0.0 1.0 0.0 1.0
000070 00 00 00 00 00 00 80 3f 00 00 00 00 00 00 80 3f
       0.0 1.0 0.0 1.0
000080 00 00 00 00 00 00 80 3f 00 00 00 00 00 00 80 3f
       0.0 1.0 0.0 1.0
000090 00 00 00 00 00 00 80 3f 00 00 00 00 00 00 80 3f
       0.0 1.0 0.0 1.0
0000a0 00 00 00 00 00 00 80 3f 00 00 00 00 00 00 80 3f
       0.0 1.0 0.0 1.0
0000b0 00 00 00 00 00 00 80 3f 00 00 00 00 00 00 80 3f
       0.0 1.0 0.0 1.0
0000c0 00 00 00 00 00 00 80 3f 00 00 00 00 00 00 80 3f
       0.0 1.0 0.0 1.0
0000d0 00 00 00 00 00 00 80 3f 00 00 00 00 00 00 80 3f
       0.0 1.0 0.0 1.0
0000e0 00 00 00 00 00 00 80 3f 00 00 00 00 00 00 80 3f
       0.0 1.0 0.0 1.0
0000f0 00 00 00 00 00 00 80 3f 00 00 00 00 00 00 80 3f
       0.0 1.0 0.0 1.0
000100 a4 6a 57 3f 41 51 0a 3f ce 7a 2e 3f b0 54 3b 3f
       0.84147096 0.54030234 0.68156135 0.731761
000110 ba 7d 08 3f 0d 94 58 3f f0 90 d1 3e c7 92 69 3f
       0.53316844 0.8460091 0.4093089 0.9123959
000120 3e 39 9f 3e 6b 4e 73 3f 25 8f 70 3e f1 d5 78 3f
       0.3109836 0.9504153 0.23492105 0.9720145
000130 3a 23 35 3e 83 f6 7b 3f f3 25 08 3e 28 ba 7d 3f
       0.17689219 0.9842302 0.13295726 0.99112177
000140 76 75 cc 3d 98 b8 7e 3f 36 6f 99 3d d1 47 7f 3f
       0.099833414 0.9950042 0.07491915 0.9971896
000150 ae 36 66 3d 68 98 7f 3f fa ac 2c 3d bd c5 7f 3f
       0.05620449 0.9984193 0.04215715 0.999111
000160 5b 81 01 3d 3c df 7f 3f a5 3e c2 3c 93 ed 7f 3f
       0.031617504 0.99950004 0.023711512 0.99971884
000170 42 ab 91 3c a3 f5 7f 3f 49 7a 5a 3c 2c fa 7f 3f
       0.017781857 0.99984187 0.013334819 0.99991107
000180 57 d6 23 3c b9 fc 7f 3f 16 b9 f5 3b 28 fe 7f 3f
       0.009999833 0.99995 0.0074988706 0.99997187
000190 5a 44 b8 3b f7 fe 7f 3f 5a 2e 8a 3b 6b ff 7f 3f
       0.0056233825 0.9999842 0.0042169513 0.9999911
0001a0 1c 3e 4f 3b ac ff 7f 3f 03 69 1b 3b d1 ff 7f 3f
       0.0031622713 0.999995 0.0023713715 0.9999972
0001b0 20 15 e9 3a e6 ff 7f 3f 8a c9 ae 3a f1 ff 7f 3f
       0.0017782785 0.99999845 0.001333521 0.9999991
0001c0 6d 12 83 3a f8 ff 7f 3f 89 94 44 3a fb ff 7f 3f
       0.0009999998 0.9999995 0.000749894 0.9999997
0001d0 13 6a 13 3a fd ff 7f 3f 21 17 dd 39 ff ff 7f 3f
       0.0005623411 0.9999998 0.00042169637 0.99999994
0001e0 61 cb a5 39 ff ff 7f 3f 0d a8 78 39 00 00 80 3f
       0.00031622782 0.99999994 0.00023713727 1.0
0001f0 53 77 3a 39 00 00 80 3f 6d d4 0b 39 00 00 80 3f
       0.00017782794 1.0 0.00013335208 1.0
000200 b7 c7 68 3f 33 11 d5 be d9 5a 7f 3f 53 4d 91 3d
       0.9092974 -0.41614684 0.99748 0.070948265
000210 0a f2 66 3f b2 e8 dc 3e 11 35 3f 3f 03 39 2a 3f
       0.9021307 0.43146282 0.7469035 0.6649324
000220 1b 54 17 3f ec 7b 4e 3f b5 d3 e9 3e 69 be 63 3f
       0.5911271 0.8065784 0.45669332 0.8896242
000230 f6 47 b2 3e a6 fa 6f 3f 82 f0 86 3e f5 f2 76 3f
       0.34820527 0.93741834 0.26355368 0.96464473
000240 f8 6f 4b 3e a5 e5 7a 3f d3 00 19 3e 4f 20 7d 3f
       0.19866931 0.9800666 0.1494172 0.98877424
000250 86 d9 e5 3d f3 61 7e 3f ae 85 ac 3d 0e 17 7f 3f
       0.1122313 0.9936821 0.08423935 0.99644554
000260 c8 70 81 3d f9 7c 7f 3f aa 30 42 3d 4e b6 7f 3f
       0.063203394 0.9980007 0.04740969 0.9988755
000270 5c a5 11 3d 8e d6 7f 3f 50 75 da 3c b1 e8 7f 3f
       0.03555809 0.9993676 0.026667267 0.99964434
000280 3e d4 a3 3c e5 f2 7f 3f 51 b7 75 3c a1 f8 7f 3f
       0.019998666 0.9998 0.014997319 0.9998875
000290 9b 43 38 3c db fb 7f 3f 0a 2e 0a 3c ab fd 7f 3f
       0.011246587 0.99993676 0.008433828 0.9999644
0002a0 d8 3d cf 3b b1 fe 7f 3f e7 68 9b 3b 43 ff 7f 3f
       0.006324511 0.99998003 0.00474273 0.99998873
0002b0 08 15 69 3b 96 ff 7f 3f 7f c9 2e 3b c4 ff 7f 3f
       0.0035565514 0.9999937 0.0026670394 0.9999964
0002c0 68 12 03 3b df ff 7f 3f 85 94 c4 3a ed ff 7f 3f
       0.0019999985 0.99999803 0.0014997876 0.99999887
0002d0 12 6a 93 3a f5 ff 7f 3f 1f 17 5d 3a fa ff 7f 3f
       0.0011246821 0.99999934 0.0008433926 0.99999964
0002e0 60 cb 25 3a fd ff 7f 3f 0c a8 f8 39 fe ff 7f 3f
       0.0006324556 0.9999998 0.0004742745 0.9999999
0002f0 53 77 ba 39 ff ff 7f 3f 6d d4 8b 39 00 00 80 3f
       0.00035565588 0.99999994 0.00026670416 1.0
000300 c3 81 10 3e 26 70 7d bf de 3c 47 3f ce bf 20 bf
       0.14112 -0.9899925 0.7782725 -0.6279267
000310 d7 45 7e 3f ab 7f ed bd 63 21 74 3f 63 18 9a 3e
       0.9932532 -0.11596616 0.95363444 0.3009673
000320 c2 09 50 3f 58 2f 15 3f b7 24 27 3f a2 e7 41 3f
       0.8126489 0.58275366 0.652904 0.7574407
000330 6c 2f 02 3f 29 6d 5c 3f a7 68 c7 3e 37 c9 6b 3f
       0.5085361 0.86104065 0.3894703 0.92103904
000340 6c 4e 97 3e ef 90 74 3f e2 6d 64 3e 92 8c 79 3f
       0.2955202 0.9553365 0.22307542 0.9748012
000350 d7 ee 2b 3e 9e 5d 7c 3f 2c 33 01 3e 43 f4 7d 3f
       0.16790329 0.9858035 0.12617177 0.9920084
000360 c0 ff c1 3d 4f d9 7e 3f 06 93 91 3d 3a 5a 7f 3f
       0.094726086 0.99550337 0.071081206 0.9974705
000370 4e 69 5a 3d c3 a2 7f 3f c5 d1 23 3d 90 cb 7f 3f
       0.053323083 0.9985773 0.039994974 0.99919987
000380 1f b9 f5 3c 83 e2 7f 3f 47 47 b8 3c 6b ef 7f 3f
       0.0299955 0.99955004 0.022494925 0.999747
000390 c6 31 8a 3c ad f6 7f 3f 46 44 4f 3c c1 fa 7f 3f
       0.016869437 0.9998577 0.012650555 0.99991995
0003a0 0d 6e 1b 3c 0d fd 7f 3f 13 1d e9 3b 58 fe 7f 3f
       0.009486687 0.999955 0.0071140616 0.9999747
0003b0 a8 cf ae 3b 11 ff 7f 3f 13 17 83 3b 7a ff 7f 3f
       0.005334813 0.99998575 0.0040005534 0.999992
0003c0 92 9b 44 3b b5 ff 7f 3f 60 6f 13 3b d6 ff 7f 3f
       0.0029999954 0.9999955 0.0022496805 0.9999975
0003d0 17 1f dd 3a e8 ff 7f 3f 56 d1 a5 3a f3 ff 7f 3f
       0.0016870227 0.99999857 0.0012650888 0.9999992
0003e0 10 b1 78 3a f9 ff 7f 3f 09 7e 3a 3a fc ff 7f 3f
       0.00094868336 0.9999996 0.00071141176 0.99999976
0003f0 7e d9 0b 3a fe ff 7f 3f a4 be d1 39 ff ff 7f 3f
       0.0005334838 0.9999999 0.00040005625 0.99999994

transformer.transformer_encoder.layers.0.self_attn.in_proj_weight f4 [192, 64]
000000 5e 7d c9 3d 90 93 c1 3d 1e e1 ae 3d 82 a8 a6 bc
       0.09838365 0.094519734 0.085390314 -0.020344023
000010 d1 32 52 3c 90 44 fb 3d a1 90 43 3d 29 58 fd 3c
       0.012829498 0.12268937 0.04774535 0.030925827
000020 db 4d 6c 3d ce 38 22 3e 45 04 3c 3e 47 00 b0 3d
       0.057691436 0.15841982 0.18361004 0.08593803
000030 bd 9f c3 3d db 39 5c 3d 53 0f 80 bd 5a 5f f8 3c
       0.09551952 0.053766113 -0.06252923 0.030318905
000040 55 98 91 bb 6b cf cb bd f2 e7 a8 3d 9e ee 07 be
       -0.004443208 -0.09951671 0.08247365 -0.13274619
000050 0a a6 19 3e cd cb 84 be c4 38 13 be 49 5a ee bc
       0.15004745 -0.25936738 -0.14377123 -0.029095786
000060 7f 5b a2 bd 25 5c 19 be 5d 46 c3 bd c5 6c eb bc
       -0.07927608 -0.14976557 -0.09534905 -0.028738389
000070 9b 7a 98 3d b1 43 1c 3e 94 9c 8c bd d9 bd d8 bd
       0.0744526 0.15260197 -0.068658024 -0.105830856
000080 62 5f 0f be c9 93 22 3b 66 3d 8d bc 37 78 e6 3d
       -0.1400123 0.0024807325 -0.017241191 0.11253398
000090 73 ae ef 3d df 4f bb bd 03 f3 4e bb 42 ea 89 bd
       0.117031954 -0.091460936 -0.0031577952 -0.06734134
0000a0 f8 dd b7 bd 53 e6 75 3d 54 f1 1e 3e 47 e7 a9 3d
       -0.08977884 0.060034107 0.15521747 0.08296066
0000b0 c0 4d 86 bd fd 9f 8f 3d 21 06 06 bd 51 37 44 3d
       -0.065577984 0.07012937 -0.03272069 0.047904316
0000c0 d5 0f ec bd 9c 13 87 bd 97 f7 16 be af 8d 5d be
       -0.11526457 -0.06595537 -0.14742886 -0.21636079
0000d0 70 ce c9 bc 1f 39 11 3e f0 91 9a bb 81 7b b9 bd
       -0.02463457 0.14181946 -0.004717104 -0.090567596
0000e0 81 22 e0 bd 66 35 c4 bc 77 57 90 3d 4b 01 5a 3e
       -0.10944081 -0.023951244 0.070479326 0.21289556
0000f0 79 c5 be 3d bd 86 61 3c 72 7d 8d 3d b2 d4 2c bd
       0.09315009 0.013765034 0.069086924 -0.04219503
000100 79 6c 75 3d d7 a5 d5 3d 26 41 f9 bb 1e d8 1e bc
       0.0599179 0.10432022 -0.0076066433 -0.009695081
000110 2e 19 b8 bd df 22 fe bd c4 ce a3 3d c4 8d 05 3d
       -0.08989178 -0.12408995 0.07998422 0.0326059
000120 6e 1e 81 bd 1b 0f 53 bd 77 f8 2c be 37 19 16 3e
       -0.06304632 -0.051528078 -0.16891657 0.14658056
000130 77 9d 5a bd c0 93 13 be d2 ea 00 bd 53 bb b5 3d
       -0.053372826 -0.14411831 -0.031473942 0.0887362
000140 cd 97 05 bc bd 27 f0 3b e0 94 19 3c 6b 8f 10 bd
       -0.008153868 0.007328956 0.0093738735 -0.035293024
000150 e0 e7 32 be 19 2e b5 3d 04 97 c2 bd 66 bf d8 bd
       -0.17471266 0.08846683 -0.0950146 -0.10583381
000160 ef a5 35 be 89 ce 85 bd 61 29 87 bd 79 c2 03 3e
       -0.1773908 -0.06533534 -0.06599689 0.12867154
000170 0a 1f a0 3c 65 3f ea bc e0 e0 42 3d 03 06 c3 bd
       0.01954605 -0.028594682 0.04757774 -0.09522631
000180 da dd 9b bb 56 53 e1 3c 63 e7 90 3d 9f 3c 51 be
       -0.0047566714 0.027505558 0.070753835 -0.20433281
000190 8e 3a cb bd dc 81 72 3d e7 d6 90 bd 65 67 45 3d
       -0.09923278 0.059205875 -0.07072239 0.048194308
0001a0 71 61 57 3e 2a 89 91 3d e1 be 53 bd c7 64 78 bd
       0.21033265 0.0710624 -0.05169571 -0.060642984
0001b0 09 33 1e bd 1f 3d 13 be 4f 38 cf bd bd 7b da 3d
       -0.03862289 -0.14378785 -0.10118162 0.106681325
0001c0 e1 9d 8a 3d 44 47 a7 3d df 56 11 3e cb db 1c 3d
       0.06768394 0.0816789 0.14193295 0.03829555
0001d0 83 1d 31 be d3 6b 3e be 49 d0 c2 bd 77 2f 01 3e
       -0.17296414 -0.18595819 -0.095123835 0.12615763
0001e0 1b c7 48 bc d3 04 54 be 47 20 26 be 63 a3 d3 3d
       -0.012254502 -0.20704965 -0.1622325 0.10333898
0001f0 de e0 98 bc 9d c0 27 3c f8 5d 65 bd 4a 4c fe 3d
       -0.018661913 0.010238794 -0.05599782 0.12416895
000200 23 f7 28 3d a2 e0 86 bd 91 ee c2 3c 80 c2 dd bd
       0.041251313 -0.06585814 0.023795398 -0.108281136
000210 6b fd 20 be f8 3f 06 be fe 3a b7 3c 00 b2 9b 3d
       -0.15721671 -0.1311034 0.022366997 0.0760231
000220 d9 93 81 3d 39 64 bc 3d f0 bd 2b bd d8 c4 25 bd
       0.06327028 0.091988035 -0.041929185 -0.040470928
000230 b3 77 62 bd 2e 08 93 bb fe bd 09 be 7a ab 26 3d
       -0.055289935 -0.004487059 -0.13451383 0.040690877
000240 3c 55 83 bc 21 48 02 bd 76 23 11 3e 3f 19 dc 3d
       -0.016031854 -0.03180707 0.14173684 0.10747003
000250 47 86 31 be 62 1f 63 3b 56 7d e8 3d ab d9 1f be
       -0.17336379 0.0034656157 0.11352031 -0.15610377
000260 ad 1d 45 3c 62 61 45 3d b5 52 3b bd 9a 92 1d 3d
       0.012031001 0.048188575 -0.045733172 0.03846989
000270 d5 5d f8 3d 5d 3c 24 3e 1a c2 33 3e 3b 8a 22 bd
       0.12127272 0.16038652 0.17554513 -0.039682608
000280 84 70 41 3e a6 e6 15 3d 27 f4 b4 bc 78 3b 1d 3d
       0.18890578 0.036596917 -0.022089077 0.038386792
000290 82 40 44 bc d9 50 03 bd c6 cd 43 be a0 a6 1b 3d
       -0.0119782705 -0.032059524 -0.19121465 0.038000703
0002a0 02 9c 99 3d f5 3c d4 bd 83 e1 b1 3c 28 28 4b 3c
       0.07500459 -0.10363189 0.021713978 0.012399711
0002b0 57 98 0b 3e e3 fb 46 bd fc ac ab bd 1d 04 30 3e
       0.13632332 -0.04858006 -0.083826035 0.17189069
0002c0 d6 1d e4 bc d1 11 20 bd f4 6f 28 be a6 f2 bd 3b
       -0.027846258 -0.03907949 -0.16448957 0.005796748
0002d0 52 a5 35 bd 1d 6c 1a be 84 d7 0f 3e 9f 7a 2a 3e
       -0.044347115 -0.15080304 0.14047056 0.16648339
0002e0 4b d2 b8 bc 69 1e 87 bd 65 7c 10 be f0 e8 15 be
       -0.022561213 -0.06597597 -0.14109953 -0.1463964
0002f0 c2 0c f1 3d 22 4c da 3c 25 bd 8e 3d 9a 91 20 3e
       0.117700115 0.026647631 0.0696967 0.15680543
000300 82 a2 bf 3b e3 2d b6 3d 96 38 9c 3d 35 1f cd 3d
       0.00584823 0.08895471 0.076279804 0.10015718
000310 71 f2 82 3c ec 82 66 bd 4c c2 0b be 50 90 bb 3c
       0.015984746 -0.0562772 -0.13648337 0.022895962
000320 91 b7 25 3d 1f c3 bd 3c 9a f7 61 3d f1 a0 c1 bb
       0.040458266 0.02316433 0.055167772 -0.0059090783
000330 31 97 07 bd 30 ad a6 bc 10 18 52 3d 88 4e a6 3d
       -0.03310317 -0.020346254 0.05129248 0.081204474
000340 f0 0c a8 3d a9 c3 fd 3c 68 93 5e bb 01 0b 07 bc
       0.08205593 0.030977087 -0.0033962373 -0.00824237
000350 52 74 fe 3d 67 a3 49 be 02 13 9e bd 9d 6c 02 3e
       0.1242453 -0.1969124 -0.07718469 0.12736745
000360 39 48 1f bd 3f 6c 6c 3d 6a b5 00 be bf c1 2f bd
       -0.038887236 0.05772042 -0.12569204 -0.04290938
000370 b5 ff 0c be 4e 28 45 3e 2b c6 ed 3c 08 32 d6 3d
       -0.1376942 0.19253656 0.029025158 0.104587615
000380 a6 51 83 bc a0 76 b7 3d 9d f6 f8 3d 8b 4d b4 bb
       -0.016030144 0.08958173 0.12156413 -0.005502408
000390 5f 89 fa bd a3 e8 13 3e 1e d0 9e 3d ab 12 78 3d
       -0.12233233 0.14444213 0.07754539 0.06056468
0003a0 7f 18 5c be 4a 09 c7 bc 08 11 15 3e 8f ea 61 bd
       -0.2149372 -0.024296422 0.14557278 -0.055155333
0003b0 24 ba e9 bd f6 eb 6f bd de e8 0e 3d 03 e0 d7 bd
       -0.11412457 -0.05857464 0.03489005 -0.10540774
0003c0 4a 1a 98 3c 0c dc ee bd a2 40 b8 3d 8b e2 95 bc
       0.018567223 -0.11663064 0.08996703 -0.0182965
0003d0 99 73 c2 bd 28 e3 27 3d b5 6b c0 3c e2 ff 34 3e
       -0.09494705 0.040988117 0.023488859 0.17675737
0003e0 28 1a ef 3d 88 c8 bd 3d 49 28 ca 3d a9 b2 fa 3d
       0.11674911 0.09266764 0.09870965 0.12241108
0003f0 c8 67 9d 3d 37 2f 1c be 28 6d 08 3e 23 70 1a 3c
       0.0768581 -0.15252386 0.1332289 0.00942615

transformer.transformer_encoder.layers.0.self_attn.in_proj_bias f4 [192]
000000 a0 4b 59 3b fa 9c f4 bc 5d fa d6 3c 7b b4 a7 3b
       0.0033156648 -0.029860009 0.02624243 0.0051179505
000010 b0 5b 54 bc 05 81 ea bc af 97 bb 3d 66 78 52 bd
       -0.012961313 -0.028625974 0.09159791 -0.051384352
000020 d1 23 7b bd 12 53 6e 3c 4d c0 de 3c 76 39 a4 3d
       -0.061313454 0.014546173 0.027191306 0.08018772
000030 4d 05 7a bd 9b a4 c1 bd 6a 34 39 3d 15 64 dd bc
       -0.06104021 -0.09455224 0.045216 -0.027025262
000040 3e 85 57 3d 43 28 90 bd 01 6e 90 bd 1f 89 a2 3d
       0.052617304 -0.07038929 -0.070522316 0.0793631
000050 86 1b 65 bd e4 07 52 3c 27 79 3e bd 85 63 2a bd
       -0.05593445 0.012819264 -0.04650226 -0.041598815
000060 f6 84 39 bd 31 de 63 bd 60 b3 8c bd ed 0a ca bd
       -0.045292817 -0.05563182 -0.068701506 -0.09865365
000070 aa d4 69 3d b1 e5 a9 bd dc 58 07 3d 09 5d a0 3d
       0.057087578 -0.08295763 0.033043727 0.07830245
000080 5d 07 b7 3d ff 30 93 bd a6 c2 9b bc d9 57 95 bd
       0.08936951 -0.0718708 -0.019013714 -0.07292146
000090 58 53 a8 bd 8b 01 fd 3c 80 4f 21 bd ec 50 80 3d
       -0.082190216 0.030884525 -0.039382458 0.062654346
0000a0 c7 cc 60 3c b7 d4 c2 bc cc 1f 8d 3d 82 cf 2f 3d
       0.013720698 -0.023783071 0.068908304 0.042922504
0000b0 74 fe 41 3d a4 26 ea 3c 71 2e 04 bc 30 56 86 3d
       0.047361806 0.028582878 -0.008067713 0.06559408
0000c0 6e aa 4b bd 4b 79 89 3d 9c 21 42 bd 0b 2e 8b 3b
       -0.04972308 0.06712588 -0.047395334 0.004247432
0000d0 5e f1 1c 3d 5b c1 25 bd ed f6 5b 3c 0a 70 d1 3c
       0.038316123 -0.0404676 0.013425571 0.02556612
0000e0 1f 7c fe bc 0c 96 7d bd 22 87 e1 3c 54 55 3c 3d
       -0.031065045 -0.061910674 0.027530257 0.045979813
0000f0 0b c4 09 3d f3 a2 2c 3d cc d8 cc bb 4f d0 3a 3d
       0.033634227 0.042147588 -0.00625143 0.045608815
000100 2a 07 06 3e 35 bc c6 bd f1 2b 88 bd 25 aa 5c 3d
       0.1308867 -0.097038664 -0.06649006 0.0538732
000110 56 0b fb bd 99 06 48 bc 66 27 1d bb 26 b1 1b bd
       -0.122580215 -0.012208604 -0.0023979782 -0.03801074
000120 3a ff 59 bd 70 f5 dc 3d 87 99 9f 3d 5f ef 61 bc
       -0.05322192 0.10789001 0.07792955 -0.013789981
000130 47 22 8f 3d 22 f3 6e bd a2 e2 6d 3d b8 07 49 bc
       0.0698896 -0.05833734 0.058077462 -0.012269907
000140 9d ba fd bb f7 2c f5 bc be 8f 37 3d fd 71 c3 bd
       -0.0077431933 -0.029928667 0.044814818 -0.09543226
000150 17 bd b1 3c dd c5 99 3d f6 1c 80 3d 4e c6 40 3d
       0.02169661 0.075084426 0.06255524 0.047064118
000160 f1 9c 93 3d 26 31 87 3d d4 6d a1 3d 23 48 84 3a
       0.072076686 0.06601171 0.07882276 0.0010092299
000170 5f 38 17 3b 45 9e 78 3d 05 e1 75 3b 99 91 16 bc
       0.0023074371 0.060697813 0.0037518155 -0.009189987
000180 77 37 2b bd 14 1a 8f 3d 77 96 71 bc ff 78 e8 3d
       -0.041800942 0.06987396 -0.014745346 0.11351203
000190 90 bc 9b 3d c4 ee c0 bd c1 aa 7a 3d 8a a1 b8 bc
       0.07604325 -0.09420541 0.061198 -0.022537965
0001a0 b5 8d c9 bd 32 61 de bb bb 1c 03 3d 8b a3 57 3d
       -0.098414816 -0.006786489 0.03200982 0.0526462
0001b0 ee f3 a1 3d 5d d9 db bc 3c d4 5d bd 07 69 42 3d
       0.07907854 -0.026837045 -0.05415748 0.047463443
0001c0 37 d9 a8 3c 3c 2a e0 ba 81 15 59 bc 44 ba c2 3c
       0.020611389 -0.001710243 -0.013249756 0.023770459
0001d0 dd 0e 08 bd 03 66 86 3c 00 84 34 bd be c3 19 bd
       -0.0332173 0.016406065 -0.044071198 -0.03754019
0001e0 f3 9e fd bb 5b 72 fe 3b b7 dc 80 bc 7c d6 55 bd
       -0.0077398955 0.007765097 -0.015730245 -0.0522065
0001f0 12 1f 90 3b 01 9d 19 3c a4 00 2b bc ab 16 05 3d
       0.004398235 0.009375812 -0.010437164 0.03249232
000200 55 fb 9d bb b7 bb d1 3a 18 75 8c bd 88 dc be 3c
       -0.004821221 0.0016001378 -0.06858271 0.023298517
000210 d3 a7 0d 3b fe 36 04 3d b4 5e f7 bc 33 ba e9 3c
       0.0021614924 0.032279007 -0.030196525 0.02853117
000220 89 84 1a bd 19 0f f8 3c 20 62 07 3e d2 c1 26 3d
       -0.03772405 0.030280637 0.13221025 0.040712185
000230 7f b5 e1 3d 6b 7b 93 bd 4b 68 0a bd 80 bf 4c bb
       0.11020946 -0.072012745 -0.033790868 -0.0031242073
000240 cc c0 4c bb 05 5b 76 bc 05 3f 43 3d fc 9b db bc
       -0.0031242846 -0.015036349 0.047667522 -0.026807778
000250 cf 02 40 3d 8e 8a 58 3d 82 d2 b3 bb 88 28 0c 3c
       0.04687768 0.05286651 -0.005487741 0.008554585
000260 01 1c 3d bc f6 d5 a8 bb 38 9b aa bd 79 6d 85 bd
       -0.011542321 -0.0051524593 -0.08330387 -0.06515021
000270 2d 6b f9 3c 9e 46 37 3d 3d f8 0e 3d 5c 69 30 3d
       0.030446613 0.04474508 0.034904707 0.04306923
000280 6a 74 2a bc 95 3f a9 bc 78 b5 2c bc 8e 68 8b bc
       -0.010403732 -0.020660201 -0.010541312 -0.017017629
000290 ef dc f7 bc c2 16 10 bc 08 d1 c2 bb ce 94 1e 3c
       -0.030256717 -0.008794488 -0.0059453286 0.0096790325
0002a0 21 d5 de 3d 07 02 2c be d5 61 09 3e 39 5f 90 bd
       0.10880495 -0.16797648 0.13416226 -0.07049412
0002b0 72 c4 86 3d e4 39 11 bd 3e 23 bd 3d b6 94 a6 bc
       0.06580438 -0.0354556 0.092352375 -0.020334583
0002c0 25 56 8e bd 1b d7 96 ba 3c d2 cd 3d f2 57 a5 3d
       -0.069500245 -0.0011508198 0.10049865 0.08073415
0002d0 e5 80 a5 bd 57 01 c8 bd 46 04 5f 3c 70 98 73 3c
       -0.08081225 -0.097658806 0.013611859 0.014867887
0002e0 cd be 1a 3d 7a 86 47 3d 97 4c 0d bd ea b8 89 bc
       0.037779618 0.04871223 -0.03449687 -0.016811807
0002f0 04 c4 12 39 20 d2 9d 3c a2 5f 31 bd 58 c2 61 bd
       0.00013996667 0.019265234 -0.043304093 -0.05511698

transformer.transformer_encoder.layers.0.self_attn.out_proj.weight f4 [64, 64]
000000 7a 20 8a 3d c2 2f 38 bd b2 50 bd bd 9b c7 8f 3d
       0.06744476 -0.04496742 -0.09243907 0.070204936
000010 23 25 f4 3c e0 21 dd bd cd f8 31 3d c1 2b 11 bd
       0.029802864 -0.10797477 0.043450166 -0.035442118
000020 c3 47 d7 3d ae 2a b6 3d b2 0b 1d be 7e 7b f5 bd
       0.10511734 0.08894859 -0.15336493 -0.11986445
000030 41 f2 94 3a 19 a8 5f bb a7 49 26 bd 87 58 85 bd
       0.0011363701 -0.0034127294 -0.040597584 -0.06511026
000040 5e 8e ed bd 3f b0 33 3d 6d db 8a 3d d7 9e ec bb
       -0.1159942 0.043869253 0.067801334 -0.0072210836
000050 71 ff 36 bd 6d 44 2a bd 7f 8b 04 bc 53 ae 3d 3d
       -0.0446772 -0.041569162 -0.008089899 0.046308827
000060 fb d3 72 bd 96 b5 91 bd 82 b6 fb 3d c5 3e 2e 3b
       -0.05928419 -0.07114713 0.1229067 0.0026587707
000070 6f ee 30 3d e0 fb ed bc e2 7a b3 bd 42 73 27 bd
       0.043196138 -0.029050767 -0.087636724 -0.040881403
000080 29 9f 10 3e 38 a3 85 3d 7f 47 0b 3d 6e 24 22 bd
       0.14123215 0.06525272 0.03400373 -0.039585523
000090 6b a3 9e 3d d9 a3 15 3c 72 ea d2 3d 6e 73 63 3d
       0.07746013 0.009133303 0.10298623 0.055530004
0000a0 6d ec 84 bd c9 cc be bd 7b c3 c2 3d e9 fa b6 3d
       -0.06490407 -0.093164034 0.09509941 0.08934576
0000b0 7e f3 b3 3d 48 94 85 3d 70 c4 93 bd 1d 33 16 bd
       0.08786677 0.06522423 -0.07215202 -0.03666984
0000c0 81 f2 1c 3d 9f 35 7b bd 55 d0 d5 3d 4f b6 99 3d
       0.038317207 -0.061330434 0.10440127 0.07505476
0000d0 6a e1 e8 bb 67 37 46 3d 54 4e c3 3d b7 d9 b4 bd
       -0.0071069496 0.04839268 0.09536424 -0.08830588
0000e0 50 ad 8d bd 4d ec ec bd aa 06 c3 bd 4e 1b b6 3d
       -0.06917822 -0.11568508 -0.095227554 0.08891927
0000f0 c4 30 e6 bc e4 0a 15 be 8b b2 af bb 21 52 e4 bc
       -0.028099425 -0.14554936 -0.00536186 -0.027871193
000100 9f 35 b0 bd 27 59 c8 3d 1d a8 a2 3c 4d fe a3 bd
       -0.086039774 0.097826295 0.019855553 -0.080074884
000110 c7 aa 11 be 7e c3 94 bc 76 4d d8 bc fd bf 4a bd
       -0.14225303 -0.018159624 -0.026404124 -0.0494995
000120 e5 73 00 bd 42 02 22 3d 41 bb 59 3b 86 c1 20 bd
       -0.031360526 0.039552934 0.0033223184 -0.03924706
000130 7f ec c8 bd 35 80 e9 bc b7 b8 09 3d 84 7b 5e 3d
       -0.09810733 -0.028503517 0.033623423 0.054317012
000140 81 1f 9a 3d 18 c5 d5 3d d2 af 42 bd f5 e1 06 3d
       0.0752554 0.10437983 -0.047530957 0.032930333
000150 4f 6f e4 3d db c4 24 bc 01 b0 a5 bc 11 eb 17 bb
       0.11154043 -0.0100567 -0.020225527 -0.0023180882
000160 b7 57 ad 3d 63 9a 87 bc b5 76 22 bd 33 e5 cf bd
       0.08463996 -0.01655311 -0.03966399 -0.10151138
000170 30 04 c1 bc 13 88 10 be f3 12 37 bd 97 af 64 3d
       -0.023561567 -0.14114408 -0.044695806 0.055831518
000180 a5 8a 5d 3d 5d 4c 23 3e c3 de 62 3d a3 30 37 bd
       0.0540873 0.15947099 0.055388223 -0.044724118
000190 fe 2c 4e bd 99 a2 8c 3d 26 2b 83 bd ca 02 9b bd
       -0.050335877 0.068669505 -0.06404714 -0.07568891
0001a0 c5 00 88 3c db 6a 5d 3d 89 27 06 3e ca 6d b6 bd
       0.01660193 0.054056983 0.13101019 -0.08907659
0001b0 8d 7c c8 bc 69 d2 1b 3d ad 03 75 3d c7 84 f9 bc
       -0.024473453 0.03804246 0.05981796 -0.030458821
0001c0 2f 13 8b bd 8c 54 e6 bc 57 fb 5d 3c e4 ee bc 3d
       -0.06790768 -0.028116487 0.013548694 0.09225252
0001d0 05 16 96 bd 4a 1a f6 bd ca 18 f6 bc bb c2 a9 bd
       -0.07328419 -0.12016733 -0.030041117 -0.08289095
0001e0 fa 02 9a 3d dc dd c0 bd d6 4d 93 3d 52 fc a3 3d
       0.07520099 -0.09417316 0.071925804 0.08007111
0001f0 ae a7 ae bd 81 6e 54 3c 58 db 31 bd 57 47 24 3d
       -0.08528076 0.012965799 -0.043422073 0.040107097
000200 28 0a 3a 3d 3c 20 44 bd 99 c6 e5 3d 06 f9 f3 bc
       0.045419842 -0.047882304 0.1121952 -0.02978183
000210 4c 13 7e bd 13 f8 12 3d 85 8b a6 bd 85 aa 93 bd
       -0.06203012 0.035881113 -0.0813208 -0.072102584
000220 cf b3 94 3d 82 1b 29 3d e2 ae 52 3c cb 60 c9 bd
       0.07260858 0.041286 0.012859078 -0.09832915
000230 51 c1 92 bc f1 9b ca 3d 1f 65 83 bc 19 30 25 3d
       -0.017914446 0.09893025 -0.01603943 0.040329073
000240 6f 31 b2 bd 6e 61 65 ba b5 42 18 3e 32 73 49 bc
       -0.08700835 -0.0008750175 0.14869197 -0.012295531
000250 04 ae 09 bc 87 88 8e bd c1 5e f3 3b f0 b9 ae bd
       -0.008403305 -0.06959634 0.007427067 -0.085315585
000260 22 d6 e1 3d 90 3f 28 bd 59 75 b4 3d 59 0a 38 be
       0.11027171 -0.041076243 0.08811445 -0.17972697
000270 50 5b cc 3d c2 4d 64 3d e5 0c 15 3d f8 37 12 3e
       0.09978354 0.055738218 0.03638925 0.14279163
000280 4c 89 d3 3a de c2 10 3d 98 bc b4 bd 37 92 10 3e
       0.001613894 0.03534209 -0.08825034 0.14118277
000290 0c e0 8d bc 7d c6 06 be a3 f9 cd bd b1 f9 8f bd
       -0.017318748 -0.13161655 -0.1005738 -0.07030047
0002a0 f1 ea cf 3d 1a 64 82 bb 39 46 c6 3d 0a 0f 11 3d
       0.101522334 -0.003979218 0.09681363 0.035414733
0002b0 b7 55 d5 3c 76 90 73 bc a2 bf 87 bd ef 47 61 bd
       0.026041849 -0.014865985 -0.06628348 -0.05500024
0002c0 d3 5d e1 3c 05 bd 33 3c 8e 02 a0 3c 34 4d 93 3d
       0.02751056 0.010970359 0.019532468 0.0719246
0002d0 9f 71 24 3e ba b5 b1 bc cc d1 a9 3c e2 6c 3c bd
       0.16058968 -0.0216931 0.020729922 -0.046002276
0002e0 4a ab 82 3d 94 fc 83 bd 29 56 01 be d3 dc 04 bd
       0.06380327 -0.0644466 -0.12630524 -0.032437157
0002f0 4d 8c 34 bc 1c 71 00 3d 26 6c b1 bd 2c e3 19 3d
       -0.011019778 0.03135787 -0.08663206 0.037570164
000300 76 1f 5f 3c 72 47 30 3d 63 4d c5 bd 90 9a d2 bc
       0.013618341 0.043036886 -0.09633901 -0.025708467
000310 f9 6d b6 3c a7 13 c2 3c b3 1b 27 bd c4 38 be bb
       0.022269236 0.023691012 -0.0407979 -0.005805107
000320 38 e4 6e 3d 07 5c da bc 42 41 ac 3d b4 4c e3 3d
       0.058323115 -0.02665521 0.084108844 0.11098614
000330 90 0f 25 3d 76 c1 34 3c c6 4c 31 bd ff 4e 54 bc
       0.040298045 0.011032453 -0.043286107 -0.012958287
000340 34 c5 68 3d 37 11 20 bc c6 6f 93 bb ac bb b1 bd
       0.056828693 -0.009769729 -0.0044994084 -0.08678374
000350 42 15 63 bd 42 3e 5b 3d ff 08 cd 3c 35 90 cd bc
       -0.055440195 0.05352617 0.025028704 -0.025093177
000360 ef ff 04 3e 5d 0e fe bc 47 9f 2f 3b 0d 49 10 3e
       0.12988256 -0.031012708 0.0026797818 0.14090367
000370 99 c6 52 39 be cf d9 bd fd 26 d1 bc 77 ea 88 3d
       0.00020101144 -0.10635327 -0.025531286 0.066853456
000380 38 ce 39 bd 61 54 95 3d 9f 50 72 bd 66 96 33 3c
       -0.04536268 0.072914846 -0.059158918 0.010961151
000390 f1 5d e2 bd 80 e9 c5 3c de c0 b1 3d 65 d3 f5 bc
       -0.11053074 0.024159193 0.086793646 -0.030008027
0003a0 6b f1 f1 bd 3f ab 0f 3c 8e 28 86 3d ee 98 34 3a
       -0.11813625 0.008768856 0.06550704 0.00068892434
0003b0 eb 08 8d 3d 95 1e d3 bd f7 52 08 be 1c d5 91 3d
       0.068864666 -0.103085674 -0.13312899 0.071207255
0003c0 06 b0 b3 3d 59 ec 47 b9 74 cb 6f 3d ba c9 bd bd
       0.08773808 -0.00019066165 0.058543637 -0.09266992
0003d0 ec 32 83 bd f6 fa 96 bd e3 be 59 3c d0 dc f5 3c
       -0.06406197 -0.07372086 0.01329014 0.030012518
0003e0 c7 d9 8e bd f2 25 c3 3d 25 7b c0 3d e4 3a 86 bd
       -0.069751315 0.09528722 0.09398488 -0.06554201
0003f0 a0 3a cd 3c c3 d4 9a 3d 93 37 8c bd d3 de bc bc
       0.025052369 0.07560112 -0.068465374 -0.02305547

transformer.transformer_encoder.layers.0.self_attn.out_proj.bias f4 [64]
000000 ef e7 cb 3b 71 74 a6 3c 65 55 44 3d 54 48 9f 3b
       0.006222717 0.020319195 0.047933 0.004860917
000010 36 b0 fe 3c 9b 77 e0 bb 04 d6 2a bd 44 b7 d9 3c
       0.031089883 -0.0068501956 -0.041708007 0.026576646
000020 0e e9 68 bc 63 4a 80 bd 49 68 e1 bc 7a 37 26 3c
       -0.014215721 -0.06264188 -0.027515547 0.010145063
000030 43 51 a9 bc a6 87 ad bc 3f 40 b3 bc 5b ad 2a bd
       -0.020668631 -0.021182846 -0.02188122 -0.04166923
000040 a6 f4 49 bd c8 d5 62 3d df 64 d6 3b d5 92 a0 3c
       -0.04930558 0.05537966 0.0065427865 0.019601265
000050 65 84 d3 3c 77 40 c1 3c b3 e4 2d 3d 67 0c 19 bc
       0.025819967 0.02359031 0.042454433 -0.009341336
000060 d5 fb 8b 3c f8 e1 30 3d cd c7 55 3a a2 a4 0e 3c
       0.017087856 0.04318425 0.0008155078 0.008706244
000070 72 91 48 bd 65 94 12 bc e2 61 28 bc f9 0c bf 3b
       -0.048966832 -0.008946513 -0.010277243 0.005830404
000080 67 88 3d 3b 34 92 b6 bc 55 b2 9d bc 35 e1 14 3d
       0.0028920413 -0.022286512 -0.019250074 0.036347587
000090 e4 cc 5e bc 1d ff 37 bd 6b 6e b3 bb 71 66 58 3c
       -0.013598654 -0.04492103 -0.0054758093 0.013208018
0000a0 98 5d 21 3d b8 ca 1a 3d a9 18 9e bb 99 0f a5 3d
       0.0393959 0.037790984 -0.004824717 0.08059616
0000b0 30 01 48 bd 79 01 7a bd f3 fb a2 bd 0e 67 79 3c
       -0.048829257 -0.06103656 -0.07958212 0.015222324
0000c0 3e 9e ba bc 7d 88 8e bc df a0 2c 3d aa c6 29 3d
       -0.022780534 -0.017399067 0.042145606 0.041449226
0000d0 85 21 e1 bb 32 90 1f 3d 42 b1 1d bc 12 30 76 3b
       -0.006870451 0.038955875 -0.009624781 0.0037565273
0000e0 b7 82 01 bd ab 73 b4 bc d5 ed db 3c bf 81 8e 3d
       -0.0316188 -0.022027811 0.026846806 0.06958341
0000f0 18 77 98 3c 4b 31 f4 bc 0f 6f 92 b9 5a 71 e1 3c
       0.018611476 -0.029808661 -0.00027930035 0.02751987

transformer.transformer_encoder.layers.0.linear1.weight f4 [256, 64]
000000 f8 42 92 bd 03 c5 ab 3d 99 73 4f bd b2 af 96 bd
       -0.071416795 0.083871864 -0.050647352 -0.0735773
000010 6a 5c 92 bd 1e 21 5c 3c 92 79 a3 bd d5 1d 03 bd
       -0.07146533 0.01343563 -0.07982172 -0.032010872
000020 9a 93 cf bd 91 88 b7 bc 12 4f 23 bd ad 9f 18 3a
       -0.10135575 -0.022403987 -0.03987033 0.00058221334
000030 76 c5 74 3d e0 66 a5 bd 57 3f 78 3d ea c6 e3 3d
       0.059758626 -0.080762625 0.06060728 0.11121924
000040 28 b5 0b bd af 9f 89 bd e0 00 64 bd fe 13 a9 3c
       -0.03410831 -0.0671991 -0.055664897 0.020639416
000050 70 20 d4 3d 2a 65 f4 bd e0 32 9c 3d d8 38 65 3d
       0.103577495 -0.11933358 0.07626891 0.055962414
000060 fb 97 23 3c e6 8d 29 3d 2d 2b 44 bd ae 4d 10 3c
       0.009984965 0.04139509 -0.047892738 0.008807583
000070 cf 3e 01 be 96 bb 98 bd be 9a 05 be d4 b1 a2 bd
       -0.12621616 -0.07457654 -0.1304731 -0.07944074
000080 52 db 06 be 8a c1 21 3e 39 85 04 3c da 3b 77 3d
       -0.13169602 0.15796486 0.008088403 0.060359813
000090 b2 9e 7d 3d 9f 15 a1 3a 89 6a d8 3d a0 41 ef bc
       0.06191892 0.0012289769 0.10567195 -0.029206097
0000a0 87 3b cb bd ef aa 52 3d b8 83 b2 3d aa dd b6 bd
       -0.09923463 0.051432546 0.087165296 -0.08928998
0000b0 19 2c 11 be 92 39 81 3d 12 69 0f 3d e4 76 a1 bd
       -0.14176978 0.06309809 0.035012312 -0.07884005
0000c0 df 0c a4 3d b5 24 b2 bc af 68 f2 bd 9a 16 a4 bd
       0.080102675 -0.021746019 -0.11836373 -0.080121234
0000d0 5c 66 4b be 6a 66 1f 3e 31 8d 04 3d d7 8a aa 3d
       -0.19863266 0.15566412 0.032361213 0.08327263
0000e0 36 13 0b be 7a 9e bc bd d0 7a 18 3e d3 69 26 3d
       -0.13581547 -0.092099145 0.14890599 0.040628266
0000f0 d5 1a e7 3c e1 46 a3 3d 77 ab 89 3d 6d 1f 7d b9
       0.028211037 0.079725035 0.067221574 -0.00024139667
000100 e0 cc b7 3d 6d 75 30 bd 32 48 64 3c 21 1c e9 3d
       0.08974624 -0.043080736 0.013933228 0.11382318
000110 1e 5a 8b bd 72 ac b3 bb 56 65 10 bc 47 d1 f3 bd
       -0.06804298 -0.0054832036 -0.008813223 -0.11905151
000120 18 22 b3 3d 36 d5 f3 3d 73 2a c5 bc ff 8d 15 bb
       0.08746737 0.11905901 -0.024068093 -0.0022820232
000130 b5 77 12 3d 38 f9 bc bc 1b 5b 1f 3c e3 c1 93 bc
       0.035758693 -0.023068056 0.009726311 -0.018036788
000140 d6 52 88 3c f8 67 f2 bd e5 72 63 3d 1b 38 52 3d
       0.016641062 -0.11836237 0.055529494 0.051323038
000150 e3 42 cb 3d b5 44 c3 bc e2 b3 48 bc 7a f1 84 3d
       0.09924867 -0.023836473 -0.012249919 0.064913705
000160 27 4f 43 3e cf dd cd 3c 72 11 db bc b7 3d 1b be
       0.19073163 0.02513018 -0.026741717 -0.15160261
000170 de 50 25 3e 46 f4 fa bd 69 05 c9 3c 3e ec 06 be
       0.1614413 -0.12253623 0.024538713 -0.13176057
000180 28 7f ff 3c dc 97 16 be 6a af a4 bd dc 21 09 be
       0.031188563 -0.14706367 -0.0804127 -0.13391823
000190 45 a8 d4 bd 54 f6 1f 3c 6e b1 1d be 39 df c4 3d
       -0.10383657 0.009763319 -0.15399715 0.09612889
0001a0 c4 cc 9a 3c b4 f3 b1 3d cd 4c 28 3e 87 cf d6 bb
       0.018896468 0.08689061 0.16435547 -0.006555501
0001b0 5e 24 cc bb a9 01 a4 bd 5d ae 95 3b 8a 16 c6 bc
       -0.0062299212 -0.08008129 0.004567905 -0.02418067
0001c0 16 1a c1 3d c8 98 81 bd 93 a3 7e bc 55 23 ec 3d
       0.094288036 -0.06327969 -0.015541929 0.115301766
0001d0 8a 90 15 bd 74 75 7d ba cf 04 ad bc 9a 14 df bc
       -0.036514796 -0.0009668686 -0.021120457 -0.027231503
0001e0 aa 39 8f bc b8 43 25 3d da 84 fe 3b d5 25 79 bd
       -0.017483551 0.040347785 0.007767302 -0.060827095
0001f0 c5 48 f5 bd 58 9e 2f 3d 83 07 09 3d e1 40 05 3d
       -0.1197677 0.042875618 0.03345443 0.032532576
000200 69 a4 a7 bd 57 51 e4 bd 49 ee 18 bd fb 87 58 bc
       -0.081856556 -0.11148327 -0.03733662 -0.013216014
000210 b5 e4 20 be 45 f9 11 bd d5 f0 95 3d 58 a8 7d 3c
       -0.15712245 -0.035638113 0.07321326 0.015482031
000220 96 57 79 bd ad cf c2 bd 68 c6 1a 3d 4c 35 4e bd
       -0.060874544 -0.09512267 0.03778687 -0.050343797
000230 40 2e 96 3d 9f 52 d3 bc a3 8e 85 3d 16 53 eb bd
       0.0733304 -0.025796233 0.065213464 -0.11490457
000240 a5 b1 43 3e 43 c9 8c bc 27 26 b0 bd a7 d5 20 bd
       0.19110735 -0.017185813 -0.08601027 -0.039266255
000250 23 9f 91 3d 7a 72 ae 3d 5e c1 9b bd 99 23 03 bd
       0.07110431 0.085179284 -0.07605241 -0.03201637
000260 e0 ab 90 3d f1 ce 59 bd 07 9c ad bd 4b c9 9f bd
       0.070640326 -0.05317587 -0.084770255 -0.078020655
000270 39 ad fd 3d e0 79 c7 bb de 29 ab 3d 5d 0b 77 bd
       0.12386555 -0.0060875267 0.08357595 -0.06031357
000280 13 13 b3 3d 76 1f 56 bd 23 90 f1 3d 56 5a a1 bc
       0.087438725 -0.052276097 0.1179507 -0.019696396
000290 b9 2a 8b 3d 2b 04 16 3e d9 b6 25 3d 87 6b 7f bd
       0.06795258 0.14650027 0.04045758 -0.062358405
0002a0 fc 9e 58 bd 66 17 2c be 71 1d 36 3e de 58 c3 bd
       -0.052885994 -0.16805801 0.17784669 -0.095384344
0002b0 a1 6c 60 bd b0 b8 e7 3c b1 90 2d bd 23 ad 9d 3d
       -0.054791097 0.028286308 -0.042374317 0.07699039
0002c0 e7 51 80 3b 60 4c 86 bd 4b 0f bd bd 43 8d 03 3e
       0.0039160135 -0.06557536 -0.092314325 0.12846856
0002d0 42 4a ac bd 96 10 79 3c f2 d4 53 3d 98 13 80 bd
       -0.08412601 0.015201708 0.051716752 -0.06253737
0002e0 bf 4b b3 bd 87 75 ef 3c cb 75 8e 3d 03 e9 6c bd
       -0.08754682 0.029230846 0.06956061 -0.057839405
0002f0 86 c4 16 3e 14 36 ea 3d 34 f3 72 3d 5b 66 8a 3d
       0.14723405 0.11436096 0.059313968 0.06757804
000300 6e 62 cd 3d 80 92 78 3d f8 cb c8 bd 6a ba b0 3d
       0.100285396 0.06068659 -0.09804529 0.08629306
000310 5c bd d9 3d 7e d6 1d 3e d7 56 26 bd a7 ac d0 3a
       0.106318206 0.15413854 -0.04061016 0.0015920595
000320 3b 5b 98 bb 30 54 6e bd ef 61 86 bc eb 1d 96 bd
       -0.0046495474 -0.058185756 -0.01640412 -0.07329925
000330 cf b7 b3 bd d3 4a fe 3d 08 21 72 bc ca e2 d4 3d
       -0.08775293 0.12416615 -0.014778383 0.10394819
000340 ba bd ad bd 17 f1 e3 3d 95 d8 0b 3e 2f 39 dd bd
       -0.08483453 0.111299686 0.13656838 -0.108019225
000350 7a 1a 15 3e 09 74 ea 3d f0 4c 98 bd 26 8e 14 bb
       0.14560881 0.11447913 -0.0743655 -0.0022667735
000360 e4 d6 d4 bd 81 84 e1 bd cf a8 c2 3c c9 82 c6 3d
       -0.1039255 -0.11011601 0.023762135 0.09692914
000370 e7 f1 ab bc 40 fc d6 3c 9e a6 86 3d 3f 4a ef 3b
       -0.020989371 0.026243329 0.065747485 0.007302552
000380 fb 0f 17 3d 28 c6 15 3d 5c f0 a6 bd 0e 97 ad 3d
       0.036880475 0.03656593 -0.08151314 0.08476077
000390 b0 90 d6 3c 2e bf 05 be 63 30 f1 bd e7 20 6f bd
       0.02619204 -0.1306121 -0.11776807 -0.058380987
0003a0 96 1f c6 bd e3 5c ee bc d3 13 70 3c ba b4 21 bd
       -0.09673993 -0.029097026 0.014653164 -0.039478995
0003b0 7a 5f cc bd 6e cc 82 bd c2 25 4e 3d f5 de 49 bd
       -0.09979148 -0.06386648 0.050328977 -0.049284894
0003c0 8c 7c 86 3d 97 2f 53 bc 41 56 fa 3d b2 36 33 bd
       0.06566724 -0.012889764 0.12223483 -0.043753333
0003d0 07 62 e9 3d d8 e8 36 bd 2c fa cb 3d f1 c9 f1 3c
       0.1139565 -0.04465565 0.09959826 0.029515238
0003e0 8a 74 aa 3d 22 86 ba 3d 28 2a cd 3d 48 c0 28 3b
       0.08323009 0.09107615 0.10017806 0.0025749374
0003f0 1b dd 90 bd 76 8d 09 3d be 58 5d bc 2e 09 ed 3d
       -0.070734225 0.033582173 -0.013509927 0.115740165
