FFTbest_classification_model.pth (torch, 655756 bytes, 41 tensors)

transformer.input_projection.weight f4 [64, 14]
-0.10386517 0.03699399 -0.32094294 0.1429781 -0.16340637 -0.38097236 0.096915975 -0.11032684
-0.04241042 0.20053393 0.5997367 0.057877302 -0.36494276 0.32425308 0.030953407 -0.11992909
0.6140179 -0.021947345 -0.10953167 -0.13130857 0.2541363 -0.04194587 0.008460857 0.55270666
-0.07926822 -0.08851838 0.031783152 -0.07227036 -0.5320264 0.042668607 -0.18797036 -0.013464998
0.121186234 0.016668923 0.19528809 0.32315198 0.13821512 0.028550947 -0.48144448 -0.05228692
0.17947206 0.33177763 -0.09915674 0.20320238 0.16098382 -0.29562333 -1.1585151 -0.026089681
-0.10979612 0.3038609 -0.037650224 -0.31485543 -0.3559696 0.04824371 -0.12529999 0.112716176
0.03385716 0.09924753 0.17761567 0.037449583 0.172861 -0.39506614 0.30323476 -0.11851002
-0.013775839 -0.62071973 0.60270774 0.18061955 0.012025582 -0.0102617135 0.056912526 0.35073775
-0.050211888 -0.395976 -0.18781444 0.010314079 0.0656776 -0.011288632 -0.26460564 -0.2914097
-0.47793502 0.15172157 -0.36726674 0.085214816 0.1633911 0.25055072 -0.14274171 0.13822435
0.161984 0.6079932 -0.016701946 -0.020447511 0.11109359 -0.38966167 -0.23258072 0.109825134
0.15441512 0.15963937 0.066343926 0.1490055 -0.3315229 -0.39332512 0.012096185 0.51249576
-0.3883701 -0.38952425 -0.24157466 -0.27611426 -0.03118325 -0.103211135 0.2310392 -0.24366212
0.4367832 0.24768093 0.29066047 0.08465251 0.1471729 0.0032024477 0.19782507 0.03734003
0.39028677 0.018613307 0.01832722 0.12280142 0.038176157 0.3094372 -0.30196485 -0.48242816
0.54401284 -0.044449337 0.37281764 -0.34156567 -0.0953322 0.2547016 0.11498662 0.24844521
-0.13685453 -0.16885208 -0.036099687 0.2999062 0.20760529 0.106287695 0.039118968 -0.1916197
0.1308501 0.23838228 0.0030772667 0.104571514 -0.2639002 0.4700662 0.016377665 0.26821876
-0.48950243 -0.21551585 0.14460193 0.18913352 0.0939008 -0.31307703 0.51264673 0.035205077
0.012243059 -0.2842826 -0.21862964 -0.2760538 -0.6427462 0.22150923 -0.1680633 -0.13022417
-0.42608172 -0.22869457 0.4116211 -0.01997195 0.7085534 -0.64063483 -0.44565773 0.35816616
0.17839094 0.41247624 0.15704672 0.100742765 -0.3112153 0.24066877 0.11971966 0.124440074
-0.27516982 0.043638255 -0.19944376 0.19700994 -0.13948876 -0.08445535 0.043027263 -0.3387512
-0.020365087 -0.0021878 -0.1967583 0.3646611 0.18115863 -0.19082905 0.022742514 -0.3772
0.059623085 0.45936006 0.10601092 -0.3259559 0.13174297 -0.7811556 -0.08605453 0.24579881
0.017240511 -0.4702233 0.012281553 -0.009722672 -0.23305313 0.14163835 -0.61785764 -0.5246055
0.10941004 -0.27987263 0.33211344 -0.08108813 -0.14188159 -0.03291514 -0.15374415 -0.007921952
0.22624412 0.14340033 0.269187 -0.25970456 0.2852651 0.3292491 -0.027057165 -0.031035941
-0.27776766 -0.024479264 0.11795836 0.33729044 -0.60954124 -0.2848533 0.26789927 0.011254765
-0.60719407 0.0613485 -0.24050017 0.19414064 0.4132221 -0.07472584 -0.15834637 0.050268076
0.45848674 -0.16150828 0.031872783 -0.08045739 -0.020069942 -0.053181406 -0.2099138 0.036647536
00000000: 43b7 d4bd 0387 173d a252 a4be da68 123e
00000010: 0054 27be cf0e c3be e27b c63d 0af3 e1bd
00000020: 8cb6 2dbd c458 4d3e 5888 193f c010 6d3d
00000030: c7d9 babe 8004 a63e 0092 fd3c 629d f5bd
00000040: 4730 1d3f ebca b3bc 2452 e0bd c175 06be
00000050: 271e 823e 6fcf 2bbd 689f 0a3c 2f7e 0d3f
00000060: 6057 a2bd 2049 b5bd 0d2f 023d 7c02 94bd
00000070: e232 08bf 47c5 2e3d 4d7b 40be 4c9c 5cbc
00000080: 7d30 f83d 448d 883c 9af9 473e 2d74 a53e
00000090: 4488 0d3e ade3 e93c e47f f6be cf2a 56bd
000000a0: 86c7 373e c2de a93e b012 cbbd 4914 503e
000000b0: f1d8 243e f15b 97be 394a 94bf 07ba d5bc
000000c0: cadc e0bd a893 9b3e 1f37 1abd bb34 a1be
000000d0: a641 b6be 329b 453d a44e 00be bdd7 e63d
000000e0: cead 0a3d 4a42 cb3d e2e0 353e bc64 193d
000000f0: 7902 313e 1c46 cabe 9641 9b3e 62b5 f2bd
00000100: 0eb4 61bc 7de7 1ebf 0e4b 1a3f 55f4 383e
00000110: f206 453c bf20 28bc 1c1d 693d e693 b33e
00000120: fbaa 4dbd 5ebd cabe 6e52 40be 62fc 283c
00000130: fa81 863d f4f3 38bc 647a 87be a733 95be
00000140: e6b3 f4be e65c 1b3e 630a bcbe 1b85 ae3d
00000150: ff4f 273e 2f48 803e e22a 12be af8a 0d3e
00000160: 22df 253e 71a5 1b3f 85d2 88bc 8a81 a7bc
00000170: 0985 e33d bc81 c7be a429 6ebe 00ec e03d
00000180: ff1e 1e3e 8178 233e 53df 873d e694 183e
00000190: 5fbd a9be e961 c9be 142f 463c ec32 033f
000001a0: 72d8 c6be b96f c7be 595f 77be d95e 8dbe
000001b0: 0474 ffbc 5c60 d3bd 8a95 6c3e 9082 79be
000001c0: 0ca2 df3e 12a0 7d3e 73d1 943e 4c5e ad3d
000001d0: 7eb4 163e 28e0 513b a892 4a3e dcf1 183d
000001e0: abd3 c73e ef7a 983c f722 963c 507f fb3d
000001f0: 9a5e 1c3d 8d6e 9e3e 239b 9abe d300 f7be
00000200: 6d44 0b3f 8210 36bd f4e1 be3e b2e1 aebe
00000210: 873d c3bd 4068 823e 1b7e eb3d 6c68 7e3e
00000220: 9823 0cbe 8fe7 2cbe 44dd 13bd 4e8d 993e
00000230: 7b96 543e 5dad d93d 363b 203d f437 44be
00000240: 92fd 053e 7c1a 743e f8ab 493b 9729 d63d
00000250: ed1d 87be 84ac f03e 742a 863c f853 893e
00000260: 10a0 fabe 30b0 5cbe 8712 143e 38ac 413e
00000270: 104f c03d a24b a0be d13c 033f 3333 103d
00000280: 1d97 483c 7d8d 91be 73e0 5fbe ec56 8dbe
00000290: 048b 24bf 51d3 623e c918 2cbe 7c59 05be
000002a0: 6227 dabe e92e 6abe 00c0 d23e 379c a3bc
000002b0: c163 353f a500 24bf 402d e4be 8e61 b73e
000002c0: 1dac 363e 1630 d33e dbd0 203e 3952 ce3d
000002d0: 9d57 9fbe e071 763e 952f f53d 70da fe3d
000002e0: 0fe3 8cbe 07be 323d fc3a 4cbe f9bc 493e
000002f0: 24d6 0ebe edf6 acbd 5b3d 303d cc70 adbe
00000300: afd4 a6bc 3161 0fbb 027b 49be dcb4 ba3e
00000310: a681 393e b168 43be 824e ba3c 5c20 c1be
00000320: 5637 743d 3e31 eb3e 411c d93d b1e3 a6be
00000330: a1e7 063e d0f9 47bf 5c3d b0bd afb2 7b3e
00000340: f93b 8d3c 1cc1 f0be 9138 493c d84b 1fbc
00000350: 7ba5 6ebe a509 113e eb2b 1ebf 8c4c 06bf
00000360: 5f12 e03d 774b 8fbe c60a aa3e 8911 a6bd
00000370: 6849 11be 07d2 06bd 1b6f 1dbe 13cb 01bc
00000380: 8aac 673e 89d7 123e e1d2 893e fff7 84be
00000390: 440e 923e 5793 a83e fda6 ddbc 163f febc
000003a0: 9037 8ebe bd88 c8bc 2794 f13d 55b1 ac3e
000003b0: e50a 1cbf 4bd8 91be 182a 893e e865 383c
000003c0: 1271 1bbf 9148 7b3d ad45 76be cecc 463e
000003d0: d991 d33e dc09 99bd 8d25 22be e6e5 4d3d
000003e0: c6be ea3e 6d62 25be 098d 023d d8c6 a4bd
000003f0: b869 a4bc bfd4 59bd a5f3 56be ba1b 163d

transformer.input_projection.bias f4 [64]
0.5038966 -1.348137 -0.24412732 0.26137516 -0.4286029 0.35568234 -0.44026583 -0.828055
-1.0842338 0.20154719 0.07681668 -0.07172574 0.16108666 -0.09197709 -0.4681405 -0.59977156
-0.27229488 0.31835154 0.42515677 0.16367781 0.9821352 -0.23242126 -0.050711203 -0.14134161
-0.37360007 -0.44718704 -0.043255508 -0.15910798 1.0296786 0.28053018 0.49111164 0.6860359
-0.6301276 -0.49976897 -0.61170393 -0.16870934 -0.038087387 0.10267448 0.6374844 0.45042127
-0.37361208 -0.5834282 0.2771464 -0.24523625 -0.4969365 -0.3284059 -0.5597298 0.47832796
-1.1829396 -0.37089935 0.90366435 0.71644104 -0.09511075 -0.89403415 0.64739996 0.6053747
-0.35074392 1.3536828 0.4843507 -0.11336178 -0.54655975 0.05793288 0.15836294 0.9410164
00000000: 5eff 003f c18f acbf 83fc 79be f7d2 853e
00000010: d771 dbbe ff1b b63e 866a e1be 6afb 53bf
00000020: 2cc8 8abf 6362 4e3e 1052 9d3d f2e4 92bd
00000030: e7f3 243e 7c5e bcbd 1db0 efbe a18a 19bf
00000040: 3c6a 8bbe f9fe a23e 26ae d93e 289b 273e
00000050: 366d 7b3f d7ff 6dbe 8db6 4fbd dbbb 10be
00000060: 8248 bfbe b3f5 e4be b02c 31bd 34ed 22be
00000070: 82cc 833f a7a1 8f3e fc72 fb3e 0ca0 2f3f
00000080: 0b50 21bf b8e1 ffbe a198 1cbf 24c2 2cbe
00000090: 8501 1cbd ff46 d23d 2d32 233f 9e9d e63e
000000a0: 154a bfbe 8d5b 15bf 22e6 8d3e 361f 7bbe
000000b0: 766e febe d124 a8be 744a 0fbf 67e7 f43e
000000c0: 916a 97bf 85e6 bdbe 8c56 673f ae68 373f
000000d0: 6dc9 c2bd 6cdf 64bf 01bc 253f d6f9 1a3f
000000e0: b594 b3be 7a45 ad3f d1fc f73e 392a e8bd
000000f0: 57eb 0bbf 074b 6d3d e529 223e 73e6 703f

transformer.positional_encoding.pe f4 [1, 129, 64]
0.0 1.0 0.0 1.0 0.0 1.0 0.0 1.0
0.0 1.0 0.0 1.0 0.0 1.0 0.0 1.0
0.0 1.0 0.0 1.0 0.0 1.0 0.0 1.0
0.0 1.0 0.0 1.0 0.0 1.0 0.0 1.0
0.0 1.0 0.0 1.0 0.0 1.0 0.0 1.0
0.0 1.0 0.0 1.0 0.0 1.0 0.0 1.0
0.0 1.0 0.0 1.0 0.0 1.0 0.0 1.0
0.0 1.0 0.0 1.0 0.0 1.0 0.0 1.0
0.84147096 0.54030234 0.68156135 0.731761 0.53316844 0.8460091 0.4093089 0.9123959
0.3109836 0.9504153 0.23492105 0.9720145 0.17689219 0.9842302 0.13295726 0.99112177
0.099833414 0.9950042 0.07491915 0.9971896 0.05620449 0.9984193 0.04215715 0.999111
0.031617504 0.99950004 0.023711512 0.99971884 0.017781857 0.99984187 0.013334819 0.99991107
0.009999833 0.99995 0.0074988706 0.99997187 0.0056233825 0.9999842 0.0042169513 0.9999911
0.0031622713 0.999995 0.0023713715 0.9999972 0.0017782785 0.99999845 0.001333521 0.9999991
0.0009999998 0.9999995 0.000749894 0.9999997 0.0005623411 0.9999998 0.00042169637 0.99999994
0.00031622782 0.99999994 0.00023713727 1.0 0.00017782794 1.0 0.00013335208 1.0
0.9092974 -0.41614684 0.99748 0.070948265 0.9021307 0.43146282 0.7469035 0.6649324
0.5911271 0.8065784 0.45669332 0.8896242 0.34820527 0.93741834 0.26355368 0.96464473
0.19866931 0.9800666 0.1494172 0.98877424 0.1122313 0.9936821 0.08423935 0.99644554
0.063203394 0.9980007 0.04740969 0.9988755 0.03555809 0.9993676 0.026667267 0.99964434
0.019998666 0.9998 0.014997319 0.9998875 0.011246587 0.99993676 0.008433828 0.9999644
0.006324511 0.99998003 0.00474273 0.99998873 0.0035565514 0.9999937 0.0026670394 0.9999964
0.0019999985 0.99999803 0.0014997876 0.99999887 0.0011246821 0.99999934 0.0008433926 0.99999964
0.0006324556 0.9999998 0.0004742745 0.9999999 0.00035565588 0.99999994 0.00026670416 1.0
0.14112 -0.9899925 0.7782725 -0.6279267 0.9932532 -0.11596616 0.95363444 0.3009673
0.8126489 0.58275366 0.652904 0.7574407 0.5085361 0.86104065 0.3894703 0.92103904
0.2955202 0.9553365 0.22307542 0.9748012 0.16790329 0.9858035 0.12617177 0.9920084
0.094726086 0.99550337 0.071081206 0.9974705 0.053323083 0.9985773 0.039994974 0.99919987
0.0299955 0.99955004 0.022494925 0.999747 0.016869437 0.9998577 0.012650555 0.99991995
0.009486687 0.999955 0.0071140616 0.9999747 0.005334813 0.99998575 0.0040005534 0.999992
0.0029999954 0.9999955 0.0022496805 0.9999975 0.0016870227 0.99999857 0.0012650888 0.9999992
0.00094868336 0.9999996 0.00071141176 0.99999976 0.0005334838 0.9999999 0.00040005625 0.99999994
00000000: 0000 0000 0000 803f 0000 0000 0000 803f
00000010: 0000 0000 0000 803f 0000 0000 0000 803f
00000020: 0000 0000 0000 803f 0000 0000 0000 803f
00000030: 0000 0000 0000 803f 0000 0000 0000 803f
00000040: 0000 0000 0000 803f 0000 0000 0000 803f
00000050: 0000 0000 0000 803f 0000 0000 0000 803f
00000060: 0000 0000 0000 803f 0000 0000 0000 803f
00000070: 0000 0000 0000 803f 0000 0000 0000 803f
00000080: 0000 0000 0000 803f 0000 0000 0000 803f
00000090: 0000 0000 0000 803f 0000 0000 0000 803f
000000a0: 0000 0000 0000 803f 0000 0000 0000 803f
000000b0: 0000 0000 0000 803f 0000 0000 0000 803f
000000c0: 0000 0000 0000 803f 0000 0000 0000 803f
000000d0: 0000 0000 0000 803f 0000 0000 0000 803f
000000e0: 0000 0000 0000 803f 0000 0000 0000 803f
000000f0: 0000 0000 0000 803f 0000 0000 0000 803f
00000100: a46a 573f 4151 0a3f ce7a 2e3f b054 3b3f
00000110: ba7d 083f 0d94 583f f090 d13e c792 693f
00000120: 3e39 9f3e 6b4e 733f 258f 703e f1d5 783f
00000130: 3a23 353e 83f6 7b3f f325 083e 28ba 7d3f
00000140: 7675 cc3d 98b8 7e3f 366f 993d d147 7f3f
00000150: ae36 663d 6898 7f3f faac 2c3d bdc5 7f3f
00000160: 5b81 013d 3cdf 7f3f a53e c23c 93ed 7f3f
00000170: 42ab 913c a3f5 7f3f 497a 5a3c 2cfa 7f3f
00000180: 57d6 233c b9fc 7f3f 16b9 f53b 28fe 7f3f
00000190: 5a44 b83b f7fe 7f3f 5a2e 8a3b 6bff 7f3f
000001a0: 1c3e 4f3b acff 7f3f 0369 1b3b d1ff 7f3f
000001b0: 2015 e93a e6ff 7f3f 8ac9 ae3a f1ff 7f3f
000001c0: 6d12 833a f8ff 7f3f 8994 443a fbff 7f3f
000001d0: 136a 133a fdff 7f3f 2117 dd39 ffff 7f3f
000001e0: 61cb a539 ffff 7f3f 0da8 7839 0000 803f
000001f0: 5377 3a39 0000 803f 6dd4 0b39 0000 803f
00000200: b7c7 683f 3311 d5be d95a 7f3f 534d 913d
00000210: 0af2 663f b2e8 dc3e 1135 3f3f 0339 2a3f
00000220: 1b54 173f ec7b 4e3f b5d3 e93e 69be 633f
00000230: f647 b23e a6fa 6f3f 82f0 863e f5f2 763f
00000240: f86f 4b3e a5e5 7a3f d300 193e 4f20 7d3f
00000250: 86d9 e53d f361 7e3f ae85 ac3d 0e17 7f3f
00000260: c870 813d f97c 7f3f aa30 423d 4eb6 7f3f
00000270: 5ca5 113d 8ed6 7f3f 5075 da3c b1e8 7f3f
00000280: 3ed4 a33c e5f2 7f3f 51b7 753c a1f8 7f3f
00000290: 9b43 383c dbfb 7f3f 0a2e 0a3c abfd 7f3f
000002a0: d83d cf3b b1fe 7f3f e768 9b3b 43ff 7f3f
000002b0: 0815 693b 96ff 7f3f 7fc9 2e3b c4ff 7f3f
000002c0: 6812 033b dfff 7f3f 8594 c43a edff 7f3f
000002d0: 126a 933a f5ff 7f3f 1f17 5d3a faff 7f3f
000002e0: 60cb 253a fdff 7f3f 0ca8 f839 feff 7f3f
000002f0: 5377 ba39 ffff 7f3f 6dd4 8b39 0000 803f
00000300: c381 103e 2670 7dbf de3c 473f cebf 20bf
00000310: d745 7e3f ab7f edbd 6321 743f 6318 9a3e
00000320: c209 503f 582f 153f b724 273f a2e7 413f
00000330: 6c2f 023f 296d 5c3f a768 c73e 37c9 6b3f
00000340: 6c4e 973e ef90 743f e26d 643e 928c 793f
00000350: d7ee 2b3e 9e5d 7c3f 2c33 013e 43f4 7d3f
00000360: c0ff c13d 4fd9 7e3f 0693 913d 3a5a 7f3f
00000370: 4e69 5a3d c3a2 7f3f c5d1 233d 90cb 7f3f
00000380: 1fb9 f53c 83e2 7f3f 4747 b83c 6bef 7f3f
00000390: c631 8a3c adf6 7f3f 4644 4f3c c1fa 7f3f
000003a0: 0d6e 1b3c 0dfd 7f3f 131d e93b 58fe 7f3f
000003b0: a8cf ae3b 11ff 7f3f 1317 833b 7aff 7f3f
000003c0: 929b 443b b5ff 7f3f 606f 133b d6ff 7f3f
000003d0: 171f dd3a e8ff 7f3f 56d1 a53a f3ff 7f3f
000003e0: 10b1 783a f9ff 7f3f 097e 3a3a fcff 7f3f
000003f0: 7ed9 0b3a feff 7f3f a4be d139 ffff 7f3f

transformer.transformer_encoder.layers.0.self_attn.in_proj_weight f4 [192, 64]
-0.13012101 -0.18726677 0.2059869 0.02056824 -0.0719447 0.46758547 0.40670446 0.30788773
-0.25928771 -0.18906409 0.12046059 0.31129235 -0.09673599 0.31175008 0.09901162 -0.31744108
0.3577604 -0.23234645 -0.1636483 -0.009096154 0.163492 -0.060181372 -0.09321876 -0.24936312
-0.09054955 0.030177707 -0.19025646 0.27468488 -0.10290058 0.37840432 0.21413602 -0.025099894
0.24557966 0.2959166 -0.13518284 -0.18986814 -0.45029384 -0.13136707 -0.38135093 0.12113279
-0.24513306 0.31120187 -0.13022032 0.12600131 -0.06509802 0.0038954732 0.20438789 0.06098282
-0.11531598 0.16633311 0.18299863 -0.2803684 -0.0032661213 -0.30726182 -0.14296772 0.034173068
-0.36757156 -0.116553135 0.38031486 -0.28568557 0.29836354 -0.19053957 -0.22950934 -0.0048585148
0.01938384 0.32737535 -0.33687973 0.079574555 0.03286404 -0.084558204 0.09469494 -0.34783977
0.23417355 -0.14780197 0.11966862 0.0961962 -0.28975758 0.35138938 0.23346934 0.021592932
0.27846453 0.23578374 -0.19983703 0.09056388 -0.010948347 -0.28766534 -0.22663006 -0.16184844
0.027983585 -0.11294075 0.43921798 0.50343794 -0.1234895 -0.10545277 -0.032406405 0.21703678
0.13428475 0.3961313 0.12907912 0.17048986 -0.06191453 0.0862619 -0.28291106 -0.20937441
-0.1942379 0.25927788 0.13343422 -0.095283635 -0.08141364 0.7521522 0.09941701 -0.15497965
0.19154929 -0.24196962 -0.32132894 -0.06390034 0.3021869 -0.3595414 0.14475194 0.05016978
0.05831706 0.27360833 -0.5956867 0.06648348 0.03196214 0.06225446 -0.011678636 0.10698761
0.017043998 0.29726565 -0.4526879 -0.087921344 0.1870791 -0.35124737 0.3528579 -0.2872922
0.4678337 -0.10465719 -0.18472403 -0.14293624 0.22584113 0.13697518 0.16195185 0.40040627
0.1308807 0.16937706 0.24836367 -0.07569709 -0.2506369 -0.33915156 0.07753386 -0.12804946
0.44353685 0.4518093 0.13633516 -0.17704031 -0.5112026 -0.194747 0.049463253 0.29226267
-0.008653638 -0.15708308 0.3519375 0.34673536 0.22203149 0.0037786514 -0.021712873 -0.30153564
0.060820635 -0.11014709 0.009229037 -0.35609937 -0.13090436 0.5699724 0.061668344 -0.05525371
0.20149054 0.22515565 -0.67153025 -0.1271219 -0.002529497 0.00719186 -0.115467034 -0.20843801
0.2522479 -0.15733497 -0.5660207 0.28855243 -0.086199254 0.17372963 0.32390928 -0.14277762
0.088207364 -0.5304863 0.4246019 -0.0849117 -0.399542 -0.13511582 -0.2774077 0.31937617
-0.2594801 0.036085136 0.17611636 0.03885404 0.33763131 -0.23435108 -0.4162716 -0.33643755
-0.106868714 -0.19796045 -0.051537473 0.03544905 -0.22966431 0.2110522 0.05727274 0.2571735
-0.032153044 0.09428969 -0.22025606 -0.031768613 0.1441521 0.53076696 0.20355926 -0.3494808
-0.09417526 -0.16393407 -0.2983696 -0.18591408 -0.14255893 0.32722226 0.21152663 0.23782988
0.21650238 -0.25981787 -0.21412997 0.06305411 -0.028287267 -0.45200363 0.036777325 0.45541018
-0.1414228 0.03218578 0.41993564 0.33163828 -0.4032164 0.36740813 0.26568514 0.11502969
-0.092446856 -0.1441609 0.8813639 -0.102315575 0.14240253 -0.179762 -0.0034896994 -0.007958382
00000000: 713e 05be dcc2 3fbe 3bee 523e ba7e a83c
00000010: be57 93bd 5d67 ef3e 913b d03e 76a3 9d3e
00000020: 5cc1 84be 049a 41be 0bb4 f63d b661 9f3e
00000030: 851d c6bd b59d 9f3e 9bc6 ca3d a387 a2be
00000040: 5f2c b73e 3aec 6dbe 6c93 27be 0908 15bc
00000050: 726a 273e be80 76bd 7ae9 bebd 0c59 7fbe
00000060: 0b72 b9bd 3d37 f73c 97d2 42be 7fa3 8c3e
00000070: 8abd d2bd 36be c13e 7946 5b3e 4b9e cdbc
00000080: 3c79 7b3e 6182 973e 5f6d 0abe cb6c 42be
00000090: ea8c e6be 1785 06be 6e40 c3be 7814 f83d
000000a0: 2904 7bbe da55 9f3e 7a58 05be 7d06 013e
000000b0: 1c52 85bd 324b 7f3b 0f4b 513e 1fc9 793d
000000c0: c92a ecbd 3a53 2a3e fe63 3b3e 728c 8fbe
000000d0: 6c0c 56bb 6c51 9dbe 2166 12be 0ff9 0b3d
000000e0: 5732 bcbe 69b3 eebd a1b8 c23e 6145 92be
000000f0: 1bc3 983e ce1c 43be 7f04 6bbe 2d34 9fbb
00000100: dcca 9e3c be9d a73e 807b acbe fcf7 a23d
00000110: 729c 063d da2c adbd 6cef c13d 0e18 b2be
00000120: 31cb 6f3e 6659 17be d214 f53d 8302 c53d
00000130: 1b5b 94be 4fe9 b33e 9612 6f3e a9e3 b03c
00000140: e792 8e3e 4b71 713e 14a2 4cbe 8e79 b93d
00000150: b260 33bc df48 93be b611 68be 99bb 25be
00000160: d53d e53c 7b4d e7bd 2ee1 e03e 4fe1 003f
00000170: 10e8 fcbd 9ff7 d7bd 94bc 04bd e43e 5e3e
00000180: f181 093e b9d1 ca3e 512d 043e e594 2e3e
00000190: 179a 7dbd 14aa b03d b8d9 90be 3f66 56be
000001a0: 4de6 46be 12c0 843e fba2 083e 1124 c3bd
000001b0: 32bc a6bd 0c8d 403f 259b cb3d fcb2 1ebe
000001c0: 7f25 443e e2c6 77be 3a85 a4be 2ede 82bd
000001d0: 3eb8 9a3e cf15 b8be da39 143e d47e 4d3d
000001e0: dfdd 6e3d 6416 8c3e ec7e 18bf 7e28 883d
000001f0: bcea 023d 88fe 7e3d c057 3fbc 521c db3d
00000200: db9f 8b3c 3433 983e b5c6 e7be 1b10 b4bd
00000210: aa91 3f3e b2d6 b3be caa9 b43e f717 93be
00000220: e687 ef3e 8256 d6bd 4c28 3dbe e15d 12be
00000230: e642 673e 3943 0c3e b5d6 253e 0d02 cd3e
00000240: 9705 063e 2e71 2d3e 0c53 7e3e 1307 9bbd
00000250: 7b53 80be 46a5 adbe 13ca 9e3d 661f 03be
00000260: 4317 e33e 8c53 e73e 729b 0b3e 0e4a 35be
00000270: 2cde 02bf c26b 47be fb99 4a3d 74a3 953e
00000280: fdc7 0dbc 63da 20be 2731 b43e 4c87 b13e
00000290: 395c 633e 40a3 773b 32df b1bc e162 9abe
000002a0: 0f1f 793d cc94 e1bd 6335 173c a852 b6be
000002b0: cb0b 06be b6e9 113f f297 7c3d b751 62bd
000002c0: 8953 4e3e 348f 663e 68e9 2bbf 3e2c 02be
000002d0: ebc5 25bb b2a9 eb3b fb79 ecbd c670 55be
000002e0: a326 813e 6b1c 21be bce6 10bf 25bd 933e
000002f0: 3c89 b0bd 2ee6 313e 70d7 a53e 4c34 12be
00000300: 10a6 b43d f3cd 07bf 6c65 d93e 2fe6 adbd
00000310: c590 ccbe cd5b 0abe 6208 8ebe 4685 a33e
00000320: 93da 84be 02ce 133d d957 343e 6a25 1f3d
00000330: 03de ac3e bbf9 6fbe 8d21 d5be 8b41 acbe
00000340: fcdd dabd 25b6 4abe f518 53bd 0633 113d
00000350: 1f2d 6bbe 111e 583e d296 6a3d 3fac 833e
00000360: e9b2 03bd f41a c13d ce8a 61be ce1f 02bd
00000370: 9c9c 133e 58e0 073f d771 503e 26ef b2be
00000380: f5de c0bd 55de 27be e6c3 98be 4360 3ebe
00000390: f8fa 11be ad89 a73e 709a 583e ad89 733e
000003a0: cdb2 5d3e d906 85be e344 5bbe 8322 813d
000003b0: b3ba e7bc 056d e7be d2a3 163d 862b e93e
000003c0: 23d1 10be 3dd5 033d ce01 d73e 7ecc a93e
000003d0: 6172 cebe eb1c bc3e e207 883e b094 eb3d
000003e0: c754 bdbd ea9e 13be 11a1 613f d48a d1bd
000003f0: f8d1 113e 8813 38be 71b3 64bb e063 02bc

transformer.transformer_encoder.layers.0.self_attn.in_proj_bias f4 [192]
0.2930719 -0.28278258 -0.4768767 0.41819906 0.18349172 -0.05817595 0.5173402 -0.12549874
0.47380418 -0.511905 -0.45149037 -0.08292424 0.26201415 0.0007386551 0.44133693 -0.40541628
0.31748796 -0.16305578 0.3913476 -0.06428714 0.33704427 0.049167056 -0.23925515 0.07370287
-0.042304046 0.43530834 -0.47345048 0.08904098 -0.4880574 0.045671742 0.5070682 -0.5749168
0.65458584 -0.5766891 0.2456018 -0.41099408 0.20850834 -0.20936929 0.110222444 -0.44292074
-0.49483913 -0.3047787 0.19096988 -0.046860054 0.02719986 -0.358559 0.3549186 0.12586275
0.19319887 0.06497152 0.33049554 0.040356368 -0.40874124 0.014834157 0.033320516 -0.049943134
0.37638775 0.43505287 -0.08797271 -0.1832216 0.22717887 -0.28961483 0.11795342 0.06017295
-2.2582715 -0.4646276 1.5792753 -0.513682 -2.3490481 -2.528092 -1.0898763 -2.1924322
-2.1060035 1.7785298 1.5427539 1.7189021 -0.05753007 0.5082549 -0.07536014 2.2782407
-0.5534162 1.2305434 -0.4921421 0.27406442 -0.086818025 0.5359666 0.6541816 -0.25528997
2.4025567 -2.212711 0.8097539 -1.2755699 1.1278219 -0.3489727 -1.274491 1.6417421
-1.3864738 2.6050487 -2.781878 0.40785235 -1.3293711 -0.42115584 0.054393936 0.7719639
0.9344474 1.4874014 -0.14047436 -0.20518105 -0.2713788 0.29706815 -0.20562048 0.33165774
-0.56650287 1.5101084 -0.8435219 1.288116 -0.7429654 -0.76417804 -1.5700655 -0.3858701
-0.8515313 0.052477073 -1.2293746 0.45960185 1.2329304 1.1859595 -1.4277784 -1.3677717
-0.06739229 3.5823367 -1.5329819 0.7353816 0.7491961 0.9586123 -2.565381 1.1411568
1.1536751 -2.8803928 0.8115945 1.433541 2.0848813 1.0722241 7.113995 0.030098582
0.5291407 -3.236892 -2.89029 0.74344814 -1.0988897 1.4538759 0.53189766 0.6558146
0.9275801 -3.3884614 0.5714424 1.1552908 0.11723135 -0.87912613 0.65909773 2.5812597
-2.0245912 -1.4789337 -2.243274 -0.018695368 -0.9134734 -0.17549987 2.087077 -0.04925606
2.5280604 1.5362066 -1.2201695 1.5322444 0.010830966 -3.1113575 4.0011153 -2.3963745
1.035029 -1.1838369 1.8860773 -2.5116277 1.4726787 -1.0426116 -4.0065317 0.48100585
-1.6841195 2.078306 0.75979936 1.24499 -4.655317 1.1646944 -1.7375282 -1.3571122
00000000: 850d 963e e1c8 90be 2f29 f4be 301e d63e
00000010: 41e5 3b3e e849 6ebd 6870 043f be82 00be
00000020: 7696 f23e 350c 03bf bf29 e7be 2fd4 a9bd
00000030: b826 863e 4ea2 413a eaf6 e13e b992 cfbe
00000040: c88d a23e 18f8 26be b65e c83e faa8 83bd
00000050: 1191 ac3e 6563 493d 4dff 74be 88f1 963d
00000060: 0247 2dbd bce0 de3e 1a68 f2be 1e5b b63d
00000070: a9e2 f9be 4b12 3b3d 39cf 013f bf2d 13bf
00000080: f092 273f e6a1 13bf 0a7f 7b3e d16d d2be
00000090: 3683 553e e764 56be 4ebc e13d 82c6 e2be
000000a0: 8e5b fdbe f40b 9cbe 9c8d 433e 54f0 3fbd
000000b0: 3ed2 de3c 0c95 b7be e4b7 b53e 2ae2 003e
000000c0: edd5 453e ca0f 853d b636 a93e b84c 253d
000000d0: 8846 d1be f70a 733c 187b 083d 2c91 4cbd
000000e0: e5b5 c03e 40bf de3e 092b b4bd 719e 3bbe
000000f0: 94a1 683e 6548 94be 9091 f13d e977 763d
00000100: 8587 10c0 abe3 edbe b125 ca3f aa80 03bf
00000110: ce56 16c0 42cc 21c0 1181 8bbf cf50 0cc0
00000120: c3c8 06c0 dda6 e33f f678 c53f fc04 dc3f
00000130: a7a4 6bbd fe1c 023f 6b56 9abd b2ce 1140
00000140: afac 0dbf 7282 9d3f 0dfa fbbe 2c52 8c3e
00000150: a6cd b1bd 1b35 093f 7278 273f 5eb5 82be
00000160: 7dc3 1940 0f9d 0dc0 084c 4f3f e045 a3bf
00000170: 785c 903f 8dac b2be 8522 a3bf 9b24 d23f
00000180: f977 b1bf 1eb9 2640 4a0a 32c0 06d2 d03e
00000190: d528 aabf bda1 d7be 2dcc 5e3d 6d9f 453f
000001a0: f237 6f3f 2b63 be3f 83d8 0fbe fb1a 52be
000001b0: 29f2 8abe 5119 983e 2d8e 52be 0bcf a93e
000001c0: 5506 11bf 3b4b c13f 0df1 57bf fce0 a43f
000001d0: fb32 3ebf 2ca1 43bf e8f7 c8bf c490 c5be
000001e0: f5fd 59bf 33f2 563d 265c 9dbf ef50 eb3e
000001f0: aad0 9d3f 85cd 973f 71c1 b6bf 2513 afbf
00000200: f804 8abd 0145 6540 c038 c4bf f841 3c3f
00000210: 51cb 3f3f 9e67 753f 342f 24c0 6d11 923f
00000220: a0ab 933f 5b58 38c0 a8c4 4f3f 467e b73f
00000230: b26e 0540 a43e 893f d9a5 e340 4d91 f63c
00000240: c475 073f 3d29 4fc0 83fa 38c0 9e52 3e3f
00000250: 6ba8 8cbf 9b18 ba3f 722a 083f 77e3 273f
00000260: e475 6d3f 8ddc 58c0 0d4a 123f 92e0 933f
00000270: fd16 f03d 690e 61bf a1ba 283f 5c33 2540
00000280: e792 01c0 b34d bdbf cd91 0fc0 0727 99bc
00000290: 65d9 69bf 3db6 33be ab92 0540 b9c0 49bd
000002a0: becb 2140 6ba2 c43f 842e 9cbf 9620 c43f
000002b0: 5d74 313c 7b20 47c0 2309 8040 335e 19c0
000002c0: d57b 843f f887 97bf fb6a f13f 82be 20c0
000002d0: bc80 bc3f 4c74 85bf 8235 80c0 6646 f63e
000002e0: 3a91 d7bf f702 0540 3682 423f d55b 9f3f
000002f0: 5bf8 94c0 b514 953f 5367 debf dab5 adbf

transformer.transformer_encoder.layers.0.self_attn.out_proj.weight f4 [64, 64]
0.018116154 -0.021732306 0.013276377 -0.022201918 -0.012604074 -0.021835092 0.008471917 0.040287275
-0.015352238 0.017735193 -0.0066471454 -0.021915773 0.055711582 -0.0051768934 0.016104618 -0.016437944
0.0059847822 -0.008615461 0.018798191 0.030971948 -0.008958745 0.003216677 0.025634881 0.022447204
0.019310577 -0.0010049779 0.012966027 0.020162338 0.035200056 -0.007464946 0.024336906 0.01867218
-0.008474602 -0.012730293 0.00822523 0.0014832034 -0.017869132 0.03685276 0.0038542738 0.0010792188
0.029478827 -0.018294584 0.009470245 -0.050383683 0.033720143 -0.005930461 0.024429103 -0.0027697317
0.0067456667 0.018643755 -0.005324605 0.008136516 -0.0062099583 -0.01078788 0.008093725 0.024283625
0.011201946 0.015033896 -0.016542785 0.0056030257 -0.010916852 0.01871854 -0.06832308 0.023489213
-0.019792492 -0.008981819 -0.002461509 0.0080222655 0.019792495 -0.012706414 -0.00928904 -0.005086213
0.009835666 -0.0026869546 -0.01038493 -0.0030112446 -0.01122269 0.003969508 -0.0028494082 0.044895977
-0.005813197 0.0059150225 -0.0068118433 -0.0009367708 0.0125287995 0.03127147 0.0051648836 -0.0055587552
-0.013379352 0.00480513 0.009646649 0.00093811215 0.005684164 0.009027366 0.0060537504 0.00081817375
-0.015931025 -0.020219846 -0.0007861398 -0.0013304858 -0.010432934 -0.0005469188 -0.002674232 -0.012947671
-0.010683659 0.010426186 0.006917975 -0.010163314 -0.005231365 -0.012755169 -0.005919714 0.020729534
0.002658879 -0.011987366 0.020089375 0.0004538489 0.0050701555 0.0074233566 -0.0067042694 -0.011654853
-0.006763254 -0.014147242 0.0031758447 0.012431815 0.002469769 0.003510226 -0.014648025 0.0056074313
0.011590523 0.035438955 -0.012198295 0.011436635 0.0052787187 -0.0028869214 0.004840647 0.01963478
-0.014114739 -0.003417112 0.015539012 -0.031618163 0.0067107184 0.036280826 0.01784463 -0.011599863
0.0011951713 0.013331042 -0.0031154053 0.0099359155 -0.009438866 -0.0047060396 0.0061667147 -0.019261578
0.018834211 0.01622955 -0.0071712486 0.014279868 -0.011047774 0.020786418 -0.023862299 0.007230129
-0.015155917 -0.006182099 -0.012010561 0.02334544 -0.032705728 -0.018887268 -0.0071577867 -0.004525424
-0.00019426651 0.012707554 0.007967924 -0.018234638 0.012429188 -0.010592729 0.026992638 0.004058814
0.0120918015 -0.013837458 -0.0027871376 -0.014312679 -0.012176586 0.019343957 0.016687637 0.030275688
0.010855132 -0.011527034 0.015776897 0.00025287436 0.008628622 0.0025565652 -0.006668343 0.0012686802
-0.00017799 -0.010706409 0.0072754505 0.004039299 0.0027036911 -0.010504886 0.0088346675 -0.008470026
-0.01249488 -0.0112694735 0.011367276 -0.012243581 0.0069234106 -0.008334879 -0.013143763 0.0006049663
0.016907534 0.011817777 -0.0025702745 -0.0063261106 0.021109903 -0.008167355 -0.0130287865 0.0016115691
0.013878744 -0.0036547375 0.012735328 0.0117895715 0.0069435677 0.020889476 -0.0019954953 -0.0009975978
0.0032192147 0.016468748 -0.012978863 -0.0035110079 -0.013092099 0.00029815474 0.008342478 0.002385787
-0.008622421 0.00014864025 -0.003756248 -0.014792246 0.011564078 -0.004068807 0.002012523 0.008017266
0.0011319857 -0.016194057 -0.01633688 0.0011455335 0.024598926 -0.0016877603 0.0011165475 0.004814498
-0.0065115555 0.0060459436 -0.022021834 0.005815887 0.021891927 0.011166945 0.009323409 -0.00022806277
00000000: 5468 943c f307 b2bc 2985 593c cce0 b5bc
00000010: 5181 4ebc 82df b2bc cccd 0a3c 4504 253d
00000020: f487 7bbc 6549 913c 4cd0 d9bb b588 b3bc
00000030: d431 643d eea2 a9bb d5ed 833c dea8 86bc
00000040: fe1b c43b dd27 0dbc aafe 993c e2b8 fd3c
00000050: b3c7 12bc e3ce 523b 3e00 d23c 33e3 b73c
00000060: 3731 9e3c 76b9 83ba 756f 543c 7d2b a53c
00000070: ef2d 103d 819c f4bb 315e c73c 66f6 983c
00000080: 0fd9 0abc b892 50bc 1dc3 063c 0c68 c23a
00000090: 4962 92bc ebf2 163d fc97 7c3b 9374 8d3a
000000a0: 957d f13c 86de 95bc 1629 1b3c 1f5f 4ebd
000000b0: 221e 0a3d 5054 c2bb 8b1f c83c 6384 35bb
000000c0: c10a dd3b caba 983c 067a aebb 064f 053c
000000d0: e87c cbbb a6bf 30bc 8b9b 043c 74ee c63c
000000e0: 5e88 373c bb50 763c bc84 87bc 9699 b73b
000000f0: 99dc 32bc a057 993c f9ec 8bbd 736c c03c
00000100: dd23 a2bc 7b28 13bc 4551 21bb d26f 033c
00000110: df23 a23c 902e 50bc 0f31 18bc 3faa a6bb
00000120: c625 213c 9e17 30bb 8e25 2abc 4d58 45bb
00000130: 60df 37bc a612 823b 23bd 3abb d8e4 373d
00000140: a27c bebb ced2 c13b e235 dfbb a091 75ba
00000150: 9845 4d3c 8316 003d 2f3e a93b 3826 b6bb
00000160: 1235 5bbc 5a74 9d3b fa0c 1e3c a4eb 753a
00000170: 3942 ba3b 84e7 133c 8a5e c63b b67a 563a
00000180: c881 82bc 17a4 a5bc f314 4eba b263 aeba
00000190: e6ee 2abc 195f 0fba 2b42 2fbb 7822 54bc
000001a0: 840a 2fbc 98d2 2a3c 2eb0 e23b 0784 26bc
000001b0: df6b abbb 0efb 50bc 29fa c1bb fcd0 a93c
000001c0: 9640 2e3b a866 44bc 7992 a43c 91f2 ed39
000001d0: 8c23 a63b a13f f33b 7daf dbbb fff3 3ebc
000001e0: 499e ddbb d5c9 67bc d521 503b d0ae 4b3c
000001f0: d9db 213b d20b 663b 45fe 6fbc 8bbe b73b
00000200: 2de6 3d3c 7028 113d 5cdb 47bc b960 3b3c
00000210: 1af9 ac3b 8132 3dbb 4a9e 9e3b 1ed9 a03c
00000220: 8241 67bc a0f1 5fbb 5797 7e3c 0c82 01bd
00000230: 96e5 db3b 349b 143d e72e 923c 5a0d 3ebc
00000240: 4ba7 9c3a 716a 5a3c d42b 4cbb 40ca 223c
00000250: 79a5 1abc 1f35 9abb 2712 ca3b 75ca 9dbc
00000260: 344a 9a3c d5f3 843c cbfc eabb 1cf6 693c
00000270: b901 35bc 4748 aa3c de7a c3bc b8ea ec3b
00000280: 8650 78bc 3593 cabb f2c7 44bc f03e bf3c
00000290: 71f6 05bd 79b9 9abc de8b eabb 024a 94bb
000002a0: 05b4 4bb9 5833 503c e58b 023c cf60 95bc
000002b0: cba3 4b3c 208d 2dbc aa1f dd3c cdff 843b
000002c0: b11c 463c 81b6 62bc 69a8 36bb ba7f 6abc
000002d0: 4e80 47bc 3877 9e3c 83b4 883c b804 f83c
000002e0: b9d9 313c e3db 3cbc 8d3e 813c 3994 8439
000002f0: 105f 0d3c 0c8c 273b 1e82 dabb d849 a63a
00000300: d4a2 3ab9 ef69 2fbc e766 ee3b 195c 843b
00000310: 6930 313b af1c 2cbc 48bf 103c ddc5 0abc
00000320: 53b7 4cbc 99a3 38bc d03d 3a3c 4d99 48bc
00000330: c7dd e23b 048f 08bc f058 57bc 9a96 1e3a
00000340: ab81 8a3c 599f 413c 0d72 28bb 434b cfbb
00000350: adee ac3c 5fd0 05bc b176 55bc 493b d33a
00000360: ac63 633c 5284 6fbb d6a7 503c 0c29 413c
00000370: de86 e33b 6820 ab3c dbc6 02bb d4c1 82ba
00000380: 76f9 523b 78e9 863c 4ca5 54bc f018 66bb
00000390: 3e80 56bc a751 9c39 e4ae 083c dd5a 1c3b
000003a0: 0e45 0dbc 50dc 1b39 622b 76bb 2d5b 72bc
000003b0: 4277 3d3c a053 85bb 88e4 033b da5a 033c
000003c0: 235f 943a 66a9 84bc ecd4 85bc ba25 963a
000003d0: b083 c93c d737 ddba 1e59 923a f0c2 9d3b
000003e0: e35e d5bb 0d1d c63b 2267 b4bc 3293 be3b
000003f0: b356 b33c 90f5 363c 36c1 183c 2224 6fb9

transformer.transformer_encoder.layers.0.self_attn.out_proj.bias f4 [64]
1.9789764 -12.126561 0.62885267 1.8254979 -0.11185849 8.363157 -3.1580184 -6.6087155
-14.630408 0.70454526 -11.881557 3.121504 -0.14842805 -0.3326636 -2.0852184 -9.407676
-3.7969904 6.790683 4.201177 7.8559117 11.285585 -0.035978228 -0.5504636 -9.591649
-3.6001058 -4.9856143 2.8764756 -5.7138143 13.641187 9.119764 0.67041117 6.396874
-14.727516 -3.3343887 -10.662692 -1.68248 -9.156033 0.9638119 4.6685266 5.4096055
4.376882 2.8965504 0.58930564 13.7460165 0.2614709 -6.964697 -7.5552144 16.401527
-12.843744 -2.1959617 6.4484982 6.015895 4.1469555 -12.205227 5.143993 7.6314116
-4.9077635 12.684251 6.026232 4.8038507 -8.6409855 -0.20507109 -1.6224302 11.098896
00000000: 194f fd3f 6506 42c1 7dfc 203f eaa9 e93f
00000010: 1016 e5bd 7ecf 0541 f91c 4ac0 997a d3c0
00000020: 2716 6ac1 145d 343f dc1a 3ec1 b9c6 4740
00000030: 86fd 17be e252 aabe 3874 05c0 d785 16c1
00000040: e401 73c0 464d d940 0b70 8640 a163 fb40
00000050: c291 3441 e85d 13bd 2feb 0cbf 6577 19c1
00000060: 2268 66c0 278a 9fc0 2d18 3840 91d7 b6c0
00000070: 4d42 5a41 8eea 1141 11a0 2b3f 31b3 cc40
00000080: e8a3 6bc1 a066 55c0 639a 2ac1 815b d7bf
00000090: 1c7f 12c1 60bc 763f 9264 9540 7d1b ad40
000000a0: 6b0f 8c40 1561 3940 bcdc 163f afef 5b41
000000b0: 84df 853e ccde dec0 51c4 f1c0 5436 8341
000000c0: fa7f 4dc1 a38a 0cc0 195a ce40 3682 c040
000000d0: dcb3 8440 9c48 43c1 979b a440 8634 f440
000000e0: 660c 9dc0 b1f2 4a41 e4d6 c040 25b9 9940
000000f0: 7a41 0ac1 28fe 51be cbab cfbf 1495 3141

transformer.transformer_encoder.layers.0.linear1.weight f4 [256, 64]
0.10613237 0.061351594 -0.06423901 0.20227721 -0.34211007 -0.13466774 -0.10762991 0.39622024
0.11439948 -0.34242284 0.17177689 -0.15772934 -0.44304478 0.34484804 -0.17171542 0.4764088
-0.5966433 0.23605675 0.043453038 -0.11965011 -0.48100308 0.17747247 0.22905733 0.70402586
0.34835884 -0.17367248 0.3706842 0.12109446 0.045540556 -0.3611762 0.20134038 -0.55951995
0.8344892 0.24032632 0.008340876 0.19570091 0.8820821 -0.019228484 0.13888639 0.23234901
-0.22922806 -0.22063625 0.5440272 -0.19883884 -0.3844258 0.040419534 0.044045884 -0.24007612
-0.005772823 0.044845037 -0.4930481 -0.0760212 -0.068852685 0.29522213 0.3019614 -0.36035195
0.3433151 -0.5579776 -0.2891536 -0.13349886 -0.16588217 -0.5338002 -0.26353407 -0.02908595
0.007045791 0.83067614 -0.07485929 -0.24139364 -0.06382617 -0.044246703 0.4558839 -0.18093899
0.46445355 -0.60203 0.5148953 0.11613083 -0.40275162 -0.11777351 0.016592566 0.32158703
0.045056704 -0.28899848 0.14107895 -0.36132893 -0.13311009 0.035881415 -0.6202644 0.01376456
-0.23056754 0.47741893 -0.059229348 -0.03790439 -0.13251045 -0.38739064 -0.1164821 -0.35078692
0.20025012 -0.19296928 0.8626939 0.23617654 0.34667802 -0.15287128 0.090169795 -0.3103672
-0.06545426 0.1827005 -0.35272 -0.059263624 0.4737385 -0.065728486 0.7612729 0.038216963
0.43418 -0.067438535 -0.3202347 -0.3629443 0.044373628 -0.04649126 0.105837256 0.2180835
-0.11194001 -0.3142215 -0.6298979 0.09809012 -0.41173583 -0.14125295 0.024279175 0.12627722
0.3127603 -0.1180735 -0.44115856 -0.21524574 0.35617545 -0.25790545 -0.10370872 -0.001131925
0.10029091 -0.18224862 -0.07079972 -0.36861122 0.17440638 0.03475324 0.079383105 -0.051221438
0.23758623 0.18797262 0.022383971 -0.08814037 -0.074967615 0.10510277 0.3184851 -0.077160165
0.5653957 0.09715452 -0.43358654 0.08194867 -0.036858015 -0.058713038 -0.084059834 0.4952519
-0.08472348 0.14950633 0.10640545 -0.036309298 0.36916247 0.15966946 0.24623488 -0.0800209
-0.12791014 0.066049576 -0.003694865 0.025504183 0.009041969 -0.14782828 0.03931484 0.07953064
0.16541737 0.29161084 -0.26978964 0.10445915 0.04136369 -0.07526571 -0.52651346 -0.0038128863
0.4397022 0.12460819 -0.22229102 0.12606648 0.04372166 -0.14505382 0.13443635 0.036616366
0.058580577 -0.23704933 0.08099248 -0.32060748 0.039514612 -0.26413786 0.49456844 0.40809146
0.77579176 0.09240955 0.8365661 -0.2308775 0.20373736 0.78757787 0.088515915 0.20559853
-0.58874196 -0.56533146 -0.3156396 -0.35074067 -0.22394902 0.23549724 -0.04481829 0.034682274
0.090329766 -0.14654474 -0.39007065 0.1847829 -0.1131015 -0.3739516 -0.032759193 -0.103821754
0.34563223 0.30917478 -0.36874554 -0.1619307 -0.15256022 0.3729269 -0.33795854 -0.0070851916
-0.22810768 -0.19687095 -0.0717965 -0.55744153 -0.39822054 -0.26958054 0.28164437 -0.089932136
0.04784569 -0.23241766 0.14283288 0.44172937 -0.26801527 0.06396003 -0.27935305 0.3025837
-0.37652647 -0.1816368 -0.2281397 -0.7909705 0.42419672 0.17132212 0.42526615 -0.029840207
00000000: ee5b d93d cf4b 7b3d be8f 83bd c221 4f3e
00000010: 0d29 afbe 57e6 09be 126d dcbd 61dd ca3e
00000020: 464a ea3d 0c52 afbe 48e6 2f3e cd83 21be
00000030: c4d6 e2be ec8f b03e 2bd6 2fbe dbeb f33e
00000040: 9ebd 18bf dcb8 713e d0fb 313d 1e0b f5bd
00000050: 0946 f6be 58bb 353e 018e 6a3e 0a3b 343f
00000060: 175c b23e 33d7 31be 52ca bd3e 5f00 f83d
00000070: bc88 3a3d 16ec b8be 2c2c 4e3e b33c 0fbf
00000080: 16a1 553f 1a18 763e 2ba8 083c d265 483e
00000090: 22d0 613f 0e85 9dbc 3c38 0e3e e6ec 6d3e
000000a0: c3ba 6abe 78ee 61be 5e45 0b3f 699c 4bbe
000000b0: 75d3 c4be f48e 253d 7569 343d 84d6 75be
000000c0: f329 bdbb 6eaf 373d cd70 fcbe 01b1 9bbd
000000d0: a302 8dbd 5b27 973e af9a 9a3e 0d80 b8be
000000e0: ffc6 af3e 9fd7 0ebf f10b 94be edb3 08be
000000f0: 04dd 29be 21a7 08bf f0ed 86be a945 eebc
00000100: 61e0 e63b 31a7 543f d44f 99bd e52f 77be
00000110: 4cb7 82bd 083c 35bd 9d69 e93e 1248 39be
00000120: dbcc ed3e a31e 1abf 2ed0 033f 00d6 ed3d
00000130: 7635 cebe 3d33 f1bd 22ed 873c 0ea7 a43e
00000140: 618d 383d 9cf7 93be 0077 103e 1b00 b9be
00000150: 034e 08be 64f8 123d a6c9 1ebf c084 613c
00000160: e619 6cbe 4170 f43e 799a 72bd a241 1bbd
00000170: d2b0 07be 1158 c6be 2b8e eebd 589a b3be
00000180: 5e0e 4d3e bd99 45be 82d9 5c3f 43d8 713e
00000190: c87f b13e 4a8a 1cbe f1aa b83d 73e8 9ebe
000001a0: e20c 86bd d715 3b3e b797 b4be 6abe 72bd
000001b0: da8d f23e a89c 86bd c8e2 423f 6489 1c3d
000001c0: d74c de3e 371d 8abd cdf5 a3be d6d3 b9be
000001d0: 1fc1 353d 9f6d 3ebd 34c1 d83d 4851 5f3e
000001e0: ce40 e5bd a4e1 a0be fd40 21bf 79e3 c83d
000001f0: 0acf d2be 9da4 10be 1fe5 c63c d14e 013e
00000200: 1e22 a03e 85d0 f1bd 89df e1be 6169 5cbe
00000210: a15c b63e 2f0c 84be 3d65 d4bd 1a5d 94ba
00000220: 5265 cd3d 629f 3abe 72ff 90bd 9cba bcbe
00000230: 9697 323e 6a59 0e3d 9c93 a23d 92cd 51bd
00000240: ce49 733e e57b 403e 975e b73c f082 b4bd
00000250: 9f88 99bd 1f40 d73d 7b10 a33e 2606 9ebd
00000260: c6bd 103f f3f8 c63d 0eff ddbe b4d4 a73d
00000270: 6ef8 16bd 157d 70bd 9027 acbd a891 fd3e
00000280: 8183 adbd 3018 193e 1aeb d93d 0fb9 14bd
00000290: dd02 bd3e 6480 233e ff24 7c3e ffe1 a3bd
000002a0: e0fa 02be 0045 873d 8c25 72bb 26ee d03c
000002b0: c424 143c 4c60 17be 9908 213d f6e0 a23d
000002c0: 2c63 293e 044e 953e de21 8abe aeee d53d
000002d0: f96c 293d e924 9abd 96c9 06bf 9ee1 79bb
000002e0: a620 e13e 9432 ff3d 42a0 63be 9217 013e
000002f0: 7c15 333d fd88 14be afa9 093e 0bfb 153d
00000300: 30f2 6f3d 0fbd 72be 63df a53d aa26 a4be
00000310: 13da 213d 143d 87be 1338 fd3e 5df1 d03e
00000320: 4a9a 463f 3841 bd3d 3229 563f 276b 6cbe
00000330: 87a0 503e b49e 493f d547 b53d 6c88 523e
00000340: cbb7 16bf 90b9 10bf 839b a1be 4894 b3be
00000350: e452 65be 3026 713e 6293 37bd 000f 0e3d
00000360: d0fe b83d d30f 16be 57b7 c7be bb37 3d3e
00000370: c2a1 e7bd 9676 bfbe 812e 06bd 80a0 d4bd
00000380: b5f6 b03e 284c 9e3e 37cc bcbe 29d1 25be
00000390: bf38 1cbe 46f0 be3e e708 adbe e52a e8bb
000003a0: 0f95 69be 8a98 49be 0b0a 93bd 7db4 0ebf
000003b0: 90e3 cbbe 7606 8abe b133 903e 572e b8bd
000003c0: d8f9 433d e5fe 6dbe c842 123e 5a2a e23e
000003d0: 4c39 89be 7afd 823d 5d07 8fbe 40ec 9a3e
000003e0: 14c8 c0be fffe 39be 749d 69be 0b7d 4abf
000003f0: 5030 d93e 116f 2f3e 7cbc d93e 7373 f4bc

transformer.transformer_encoder.layers.0.linear1.bias f4 [256]
-0.22627786 -0.24464512 -0.19010782 -0.6903065 -0.28399533 -0.37005836 -0.3443313 -0.34119615
-0.14295149 -0.66282785 -0.43151438 -0.5153144 -0.07180283 -0.25546843 -0.27043188 -0.2611835
-0.63152045 -0.3319608 -0.6335836 -0.30276057 -0.4442864 -0.6339647 -0.30159158 -0.37403518
-0.6313887 -0.45123798 -0.6400152 -0.03790562 -0.3884506 -0.14611967 -0.5535946 -0.06984263
-0.45707464 -0.39145976 -0.32829922 0.010229744 -0.5281494 -0.16291574 -0.19742484 -0.52104557
-0.5166726 -0.36235082 -0.30998066 0.037324864 -0.29218298 -0.6373846 -0.2345862 -0.42129076
-0.47149262 -0.30075523 -0.52405745 -0.32414585 -0.21302651 -0.16184448 0.1551832 -0.14884453
0.040741928 -0.6942276 -0.8934012 -0.32296154 -0.10949269 -0.46712127 -0.32583663 -0.6246776
-0.57599235 -0.39788428 -0.5013172 -0.18866183 -0.32984462 -0.30415276 -0.22656544 -0.3883545
-0.6304231 -0.33095574 -0.4660934 -0.5122962 -0.46854648 -0.42353526 -0.41465193 -0.035234414
-0.2127032 -0.3743638 -0.5115105 -0.34343988 -0.057054535 -0.42047033 0.04620742 -0.6305185
-0.6714664 -1.0358119 -0.39943367 -0.055906963 -0.45863494 -0.033464212 -0.22195733 0.09425062
-0.5567412 -0.7651976 0.18255116 -0.3906867 -0.37057146 -0.20837079 -0.37103096 -0.5181767
-0.3448558 -0.5559063 -0.10449656 -0.2595479 -0.49571383 -0.07130205 -0.9047605 -0.30538204
-0.24526264 0.15045592 -0.55366915 -0.33063605 -0.097397305 -0.8409347 -0.2057618 -0.2336345
-0.51363045 -0.28442442 -0.14599733 -0.17292172 -0.055395223 -0.16134241 -0.34312078 -0.32536885
-0.33014768 -0.5115807 0.10760719 -0.26492903 -0.28873754 -0.66471285 -0.74759436 -0.16155544
-0.5009555 -0.8498828 -0.62048066 -0.8037418 -0.33874482 -0.27078852 -0.22016238 -0.38845
-0.4253295 -0.7135665 -0.6209939 -0.17973864 -0.23643997 0.18565589 -0.6759724 -0.21663515
-0.36342022 -0.28633156 -0.8767759 -0.7662563 -0.57260245 -0.33114624 -0.033431977 -0.27245352
-0.7961135 -0.3793633 -0.25767973 -0.6461885 -0.29196 -0.5809252 -0.42242253 -0.22638048
-0.61278164 -0.24969934 -0.6611452 -0.6097766 -0.5872417 -0.33827448 -0.13639478 -0.22038473
-0.48751804 -0.14399227 -0.6525287 0.229136 -0.34102046 -0.42184165 -0.5441919 -0.7766525
-0.26938075 -0.20232898 -0.013787812 -0.0012220189 -0.33647224 -0.17720705 -0.57155764 0.12597565
-0.21606724 -0.6574707 -0.714821 -0.16041327 -0.6873444 -0.0873073 -0.5115422 -0.55335355
-0.23862039 -0.8120737 -0.16235663 -0.03276551 -0.2518498 -0.3895256 -0.3586 -0.2849847
-0.5112311 -0.71207786 -0.76457614 -0.55747986 -0.41736552 -0.8089438 -0.37319487 -0.28120068
-0.129358 -0.5112786 -0.11396578 -0.23683748 -0.56866056 -0.28706422 -0.4805998 -0.42335662
-0.18977784 -0.386537 -0.027132787 -0.17570831 -0.54440105 -0.7298144 -0.7669736 -0.69198835
-0.25903013 -0.51950294 -0.58367026 -0.08314057 -0.56494224 -0.203952 -0.7865408 -0.29070613
-0.3256796 -0.32555202 -0.4952172 -0.23214868 -0.18099374 -0.7478495 -0.7552376 -0.30104974
-0.5173126 -0.27437624 -0.47920802 -0.30782783 -0.63292235 -0.39869124 -0.32042223 -0.5684365
00000000: 62b5 67be 4084 7abe a0ab 42be edb7 30bf
00000010: d667 91be 4a78 bdbe 314c b0be 43b1 aebe
00000020: e061 12be 16af 29bf 74ef dcbe a5eb 03bf
00000030: 5d0d 93bd c2cc 82be 0c76 8abe d8b9 85be
00000040: 53ab 21bf c4f6 a9be 8932 22bf 6f03 9bbe
00000050: 8279 e3be 834b 22bf 366a 9abe 8a81 bfbe
00000060: b1a2 21bf aa08 e7be 09d8 23bf ec42 1bbd
00000070: ffe2 c6be 65a0 15be 60b8 0dbf a709 8fbd
00000080: b005 eabe 6a6d c8be d616 a8be a89a 273c
00000090: cd34 07bf 62d3 26be bd29 4abe 3e63 05bf
000000a0: a844 04bf 0c86 b9be c9b5 9ebe f5e1 183d
000000b0: 0299 95be a32b 23bf 5d37 70be 6cb3 d7be
000000c0: 7b67 f1be 97fc 99be a128 06bf 72f6 a5be
000000d0: 9f23 5abe 8fba 25be 58e8 1e3e b36a 18be
000000e0: 02e1 263d e6b8 31bf f1b5 64bf 375b a5be
000000f0: b43d e0bd 852a efbe 0fd4 a6be dfea 1fbf
00000100: 3c74 13bf 7db7 cbbe 5356 00bf 9130 41be
00000110: 65e1 a8be e9b9 9bbe c500 68be 67d6 c6be
00000120: 6963 21bf 0873 a9be cba3 eebe d825 03bf
00000130: 53e5 efbe 9dd9 d8be 424d d4be f651 10bd
00000140: dece 59be 9dac bfbe 5af2 02bf 5ad7 afbe
00000150: 04b2 69bd e347 d7be fe43 3d3d a969 21bf
00000160: 39e5 2bbf 7c95 84bf 9282 ccbe b3fe 64bd
00000170: 33d2 eabe c511 09bd c848 63be 7806 c13d
00000180: 9786 0ebf fde3 43bf b1ee 3a3e 1608 c8be
00000190: 8bbb bdbe 275f 55be c5f7 bdbe 3aa7 04bf
000001a0: f090 b0be e04f 0ebf 4b02 d6bd 76e3 84be
000001b0: 34ce fdbe cf06 92bd 629e 67bf 095b 9cbe
000001c0: 2126 7bbe 1e11 1a3e 43bd 0dbf 2149 a9be
000001d0: 3d78 c7bd 7f47 57bf 39b3 52be e23d 6fbe
000001e0: 497d 03bf 14a0 91be 5380 15be 6412 31be
000001f0: 1ae6 62bd f236 25be 87ad afbe bf96 a6be
00000200: 1e09 a9be f4f6 02bf 2961 dc3d c7a4 87be
00000210: 68d5 93be 9f2a 2abf 5862 3fbf ca6e 25be
00000220: 9f3e 00bf eb91 59bf d2d7 1ebf 06c2 4dbf
00000230: f66f adbe cba4 8abe 3f72 61be ebe2 c6be
00000240: cac4 d9be 4bac 36bf 75f9 1ebf 680d 38be
00000250: 521d 72be 941c 3e3e 870c 2dbf 9bd5 5dbe
00000260: 3712 babe 0d9a 92be 6374 60bf 5f29 44bf
00000270: 1396 12bf 008c a9be f8ef 08bd 077f 8bbe
00000280: 18ce 4bbf e83b c2be 99ee 83be 9c6c 25bf
00000290: c87b 95be 84b7 14bf c447 d8be 49d0 67be
000002a0: 42df 1cbf 2fb1 7fbe d040 29bf 521a 1cbf
000002b0: 7955 16bf 5032 adbe 13ab 0bbe 89ac 61be
000002c0: f79b f9be b672 13be 1f0c 27bf a1a2 6a3e
000002d0: 3c9a aebe a1fb d7be 2950 0bbf b3d2 46bf
000002e0: 46ec 89be 542f 4fbe 46e6 61bc 262c a0ba
000002f0: 1746 acbe c475 35be 9a51 12bf c3ff 003e
00000300: bb40 5dbe 0050 28bf 82fe 36bf 6043 24be
00000310: cdf5 2fbf 2bce b2bd 6ef4 02bf 94a8 0dbf
00000320: e758 74be 10e4 4fbf d140 26be 2135 06bd
00000330: 75f2 80be e66f c7be 6b9a b7be 84e9 91be
00000340: 0be0 02bf bc4a 36bf 43bb 43bf 00b7 0ebf
00000350: efb0 d5be f116 4fbf 6613 bfbe 89f9 8fbe
00000360: 6c76 04be 28e3 02bf e466 e9bd 8685 72be
00000370: bd93 11bf 15fa 92be 2d11 f6be 33c2 d8be
00000380: 1f55 42be 2de8 c5be 9445 debc e1ec 33be
00000390: de5d 0bbf 1ed5 3abf 6258 44bf 2626 31bf
000003a0: 999f 84be 25fe 04bf 6a6b 15bf 9a45 aabd
000003b0: 0ea0 10bf cbd8 50be bd5a 49bf 6fd7 94be
000003c0: 7abf a6be c1ae a6be 1c8d fdbe 62b8 6dbe
000003d0: 6c56 39be 1173 3fbf 4057 41bf 3123 9abe
000003e0: 996e 04bf 0b7b 8cbe c15a f5be 9c9b 9dbe
000003f0: 3307 22bf 4221 ccbe 620e a4be 0e85 11bf
